Fall 2022/CMSC 352 – Machine Learning/Assignment 4/NeuralNetwork1.pt (torch, 45903 bytes, 5 tensors)

weight f4 [128, 17]
00000000: d656 be3d 2f61 043d 4818 2e3e 6db8 88bd
00000010: 746d 81be 8299 023e 43a9 88bd f920 4abc
00000020: 755b 9b3c d236 5d3e 6cce d2bd 5bff 703e
00000030: bd91 3cbe 00eb 58be 5d1a 383c b47a 82be
00000040: 2f57 5abe 4ef7 e33d 2b91 a1be 178b 92bd
00000050: 2ab5 373e 03c1 1f3e 0b2a 593e 8295 823e
00000060: d304 e7bc cfc5 70bd 9484 00be 2209 553e
00000070: 0cbd 693e 5dc6 4cbe 9e67 23be 3a20 30be
00000080: c575 8ebd 64ad 053e 8a4f 343d ec1a fd3c
00000090: e3e0 d53b 6005 24bd 9ff5 ccba a944 9abc
000000a0: 291a 6b3e 7cc3 843c 2543 14be 628a 363e
000000b0: 107a e03d 8383 07bd 4a5a 57be 6524 e6bd
000000c0: e217 f1bd 8eff 3e3c 04c7 063e 5e81 cfbd
000000d0: d436 26be 7ab7 57bd 74cd 0f3d 4fcf 0f3e
000000e0: 785a 28bd 226e 953c 63d2 6abe 5c62 5d3e
000000f0: e34b 4fbe 0322 123e f68d 203e 2fd1 26be
00000100: 23cf 453e ffd3 c83d 2a86 f23d 9870 ca3b
00000110: 1cf3 25be 0d17 08be 3d98 efbd bb1a 7a3d
00000120: 32d0 ab3e 2238 ed3d cd2e 6a3e 87c6 14be
00000130: 3bd3 74bc 0923 833d 522d 08bd 449f 863d
00000140: 55b6 8a3d 24d9 74bd ae8e 5fbe 6e26 1cbe
00000150: a058 41bd 945d 673e df91 6d3e a14a 2d3e
00000160: 3467 dbbd 93b8 77be 4dc5 3ebe 2b0c 6ebe
00000170: 805d 69be c124 783d ba8e 31be 1faa 743c
00000180: 895b 6ebe 510c 39be c784 f03c 6442 6dbe
00000190: d2a8 1a3e e155 49be 0473 a3bd 01f4 983d
000001a0: 0753 703c 56f1 2dbb 7851 83be f77b 05be
000001b0: ecc7 b2bd 0401 633d f0f8 e53d 8c4b 28be
000001c0: 4bf8 963a dd62 e63d a5ed 5f3e a6fd 34bd
000001d0: 982e dbbc 2b7d e03c 65a8 223e d2d7 05be
000001e0: 1f12 90be 9219 94bd 5745 703e 3052 d8bd
000001f0: d1cf b1bc e480 18be f0d6 8bbd 51fa cd3b
00000200: a482 4e3e 22b9 8fbe 41e3 a7bd b566 4fbd
00000210: 6104 0e3e 0c5a fabd 6afc 19be 9ec0 b13c
00000220: a317 eebd 03a9 5fbe 861f 4f3e 1c99 fcbd
00000230: 5b91 03bd 7b88 1fbe 4f08 60be d6cd 743c
00000240: 2f07 473e 581e 923d bfe4 2f3e d05c 02be
00000250: 34de 253e 0fe9 613e 0f55 653e a336 40bc
00000260: d2f5 3fbe 0c20 953e 3cf5 b2be cc8d 763e
00000270: 0fa0 473d ee33 a6be 058b 8dbd 8142 69be
00000280: 6bc0 e3bb 4874 cabd 3636 a93d 3639 e9bc
00000290: 2374 793e 9e47 c8bd cf7e 9bbd 43d8 a4bc
000002a0: a390 183e bbeb 93bd 0d5a 26be 9c44 783b
000002b0: 7ccb 04bc 8d80 1b3e f729 a6bd ae00 fd3d
000002c0: e3cb d33d 1b88 54be 4126 42be fd7a db3d
000002d0: d9ba 543c abde 6ebe 15c6 14be 1585 1f3e
000002e0: 147f b9bc 4c67 4bbe 4a7b 6dbe d67d 043e
000002f0: 6ce6 5fbe e357 623e d9d1 15bc 0fb9 2dbd
00000300: 2b95 82bc 13d3 42be ab95 4e3e 9715 d8bd
00000310: 1ae9 f13d e819 b53d c942 b23d 124e 6e3e
00000320: 1f1e 443e 9a5c 283e b7f5 02bc 60c4 b7bd
00000330: bdc6 d8bc 8e1c 0b3e f149 13bc 6d81 2fbd
00000340: 6bd0 45bd 934f 8fbb dce2 27bd 1ac6 1abe
00000350: 639f f4bc b156 b03d eda2 2cbe fb38 25be
00000360: 49b1 023e 9654 e63d 5c7c d83d cee5 af3c
00000370: 262c ff3d 37c3 ae3e 78e9 663e aa08 b23d
00000380: f0cc 253e dcc7 be3d 7c72 583d 6917 8ebd
00000390: 66aa 4c3d c03b 1fbe 3595 83be 96de 57bd
000003a0: 495e abbd a1b6 21bd 1c65 673b a996 11bc
000003b0: 755e b43d dccd a73d 161b 6f3e 8bd2 583d
000003c0: 8c79 2d3e 7bc5 26be 9cce 133e 5265 88bb
000003d0: 5623 6f3e 2a1c 3dbe b60c 523e e5d6 6fbe
000003e0: 7656 92bd add8 76be 40c6 a4bd a479 d83c
000003f0: 3d31 633e 3144 bf3c 9479 47be 7e2d bdbd
0.092939064 0.032319244 0.1700145 -0.066758014 -0.2527882 0.12753871 -0.06672909 -0.012336963
0.018964509 0.21602944 -0.10293278 0.2353491 -0.1841497 -0.21183395 0.011236754 -0.2548424
-0.2132232 0.11131154 -0.31556067 -0.071554355 0.17940202 0.15600972 0.21207444 0.2550469
-0.028200543 -0.058782395 -0.12550575 0.20804265 0.22826022 -0.19997545 -0.15957496 -0.17199793
-0.069560565 0.13054425 0.044021167 0.030896626 0.0065270527 -0.04004419 -0.0015637166 -0.018831568
0.22959198 0.016206495 -0.14478739 0.17826226 0.109607816 -0.033084404 -0.21030536 -0.112374105
-0.117721334 0.011657609 0.13161856 -0.10132097 -0.16231853 -0.05266521 0.035108045 0.14043926
-0.041101903 0.018240992 -0.22931819 0.21619552 -0.20243792 0.14270787 0.15679154 -0.16290735
0.19317298 0.0980606 0.11841996 0.006177973 -0.1620602 -0.13290043 -0.11698959 0.06106065
0.33557278 0.11582972 0.22869416 -0.14528857 -0.014942939 0.06403167 -0.033246346 0.06573346
0.06773058 -0.059777394 -0.21831772 -0.15249035 -0.04720366 0.22594291 0.23200177 0.16923
-0.10713044 -0.24191503 -0.18629952 -0.23246829 -0.22789574 0.060581926 -0.17339602 0.014933138
-0.23277105 -0.18071105 0.029360188 -0.23169857 0.15103462 -0.19661666 -0.07980922 0.07468415
0.014668233 -0.0026541553 -0.25648093 -0.1303557 -0.08729538 0.05542089 0.11229122 -0.16435069
0.0011518089 0.112493254 0.21867998 -0.04418721 -0.026755616 0.027403435 0.1588455 -0.1307061
-0.28138825 -0.0723144 0.23463951 -0.10562551 -0.02170554 -0.14892918 -0.068281054 0.0062859436
0.20167023 -0.28070933 -0.08197642 -0.05063506 0.13868858 -0.12224206 -0.15037695 0.021698292
-0.11625602 -0.21841817 0.20226869 -0.12333891 -0.032121044 -0.15579407 -0.2187817 0.014941653
0.19436334 0.07134694 0.17177103 -0.12730718 0.16198045 0.22061561 0.22395729 -0.011731776
-0.18746117 0.29126012 -0.34952724 0.24077529 0.04873663 -0.32461494 -0.069112815 -0.22779275
-0.0069504282 -0.0988546 0.08262293 -0.028469663 0.24360709 -0.09779285 -0.07592546 -0.020122653
0.14898925 -0.072226964 -0.16245289 0.0037882691 -0.008105155 0.15185757 -0.08113473 0.12353645
0.10341623 -0.20755045 -0.18959905 0.107168175 0.012984001 -0.23327129 -0.14528687 0.1557811
-0.022643603 -0.19863623 -0.23191562 0.12938628 -0.21865243 0.22103839 -0.00914427 -0.042412814
-0.01594027 -0.19025831 0.20174281 -0.10550993 0.11812039 0.08842832 0.087041445 0.23271969
0.19152115 0.16441575 -0.007993153 -0.089730024 -0.026461953 0.13585111 -0.008989797 -0.04284804
-0.048294466 -0.0043734997 -0.040987834 -0.15114632 -0.029861158 0.08610285 -0.16859026 -0.16135018
0.12762941 0.11246602 0.10570595 0.021471884 0.124595925 0.34133312 0.22549999 0.08693059
0.16191459 0.09315464 0.052843556 -0.06938059 0.049967192 -0.15550137 -0.25699773 -0.05270251
-0.08367593 -0.03948081 0.0035308069 -0.008886018 0.08807079 0.081935614 0.23350176 0.052935164
0.16940898 -0.1628627 0.14434284 -0.004162469 0.23353323 -0.18467775 0.20512661 -0.2342182
-0.07145397 -0.24106093 -0.08045626 0.02642519 0.22186752 0.023347946 -0.19479972 -0.092371926

bias f4 [128]
00000000: fff9 15bc 1dd4 e13d c132 3e3e 501d 403e
00000010: 4171 30be a289 0f3d b0df ae3e 5542 67bc
00000020: 1a20 5b3e d6ad aa3e ef16 073e a8ca 083e
00000030: 0188 0dbe 9d1a 12bc 258d 18be 02cf 7e3e
00000040: 44f7 1dbe e507 ca3d 572d 4cbe f269 bbbd
00000050: 8030 243c 024a 9d3d 2c22 6fbc c599 dcbc
00000060: 8bb8 9f3d eafb 21be e3a3 243e 366e acbd
00000070: 7711 ce3c d114 843d f17b 3e3e 3fe6 74bc
00000080: ea1d 81be bb47 693e e93c ba3e 1b2e b4bc
00000090: 8e50 1e3e 550a 6e3e 9ed2 523e b9ad 0d3e
000000a0: 3915 c63d 1916 81bd 8df0 16be 7569 5ebe
000000b0: d6ab 4a3d 2134 123e b498 30be 4f94 8ebd
000000c0: 17f6 4b3e 0121 1cbd 8315 223e ca10 a0bd
000000d0: 431d 18be 4256 c9bc 62fb a13b 5642 48be
000000e0: f0fd 77bd 8a7f b63d 5c36 073e a152 0f3d
000000f0: b4f2 b03d 58c5 623d c31b 5f3e 9ca1 bcbc
00000100: 0b84 a13e 7c98 7d3d eb1c 77be 37f4 0e3e
00000110: 15de 4b3e d2a4 22be c110 e8bd 4ca2 bfbd
00000120: 67ce c53c 3714 263e a1c8 c2bc e92b 4a3e
00000130: 2264 3b3d db1a 9ebb 5391 423e 1225 0e3d
00000140: ed3d a4bc 5986 32bd 7896 db3d ab4b 083e
00000150: fedf 303e 5477 e0bd 669f 033e 579f 1f3d
00000160: 687c 813e f6c4 3fbe 5917 053d 1bfe 33be
00000170: de81 fcbd eca1 cabc cabf 96bd bb87 0e3e
00000180: 050d 31be 7314 4fbd 88b7 803d bc8a ee3d
00000190: 8aa9 853e c927 c1bd 526b 903e eec9 973d
000001a0: a739 5abe 1449 223e 8fd4 223c c696 783e
000001b0: 37d9 b1bd 9e73 523e c5cd da3c af9f 4b3d
000001c0: ab3c 5bbe 4d27 953e fed4 0cbe 9fb6 b33d
000001d0: af6f 043e 2ae8 62bd e954 973e 0027 8abd
000001e0: ce2b 863e 462f 88bd a0a0 44be d4d7 cd3d
000001f0: 8a4e 613e 14f4 02be c216 59bd 455d 9ebe
-0.009153842 0.110267855 0.18574049 0.18761182 -0.17230703 0.035043366 0.34155035 -0.014114936
0.21398965 0.3333575 0.13192342 0.13358557 -0.13821413 -0.008917478 -0.14897592 0.24883655
-0.15426356 0.09864787 -0.19939171 -0.09151067 0.010021329 0.076801315 -0.01459555 -0.026928792
0.07798871 -0.15818754 0.16078143 -0.084194586 0.025154812 0.06449283 0.18601967 -0.014947473
-0.25218135 0.22781269 0.36374596 -0.021994641 0.15460417 0.23246129 0.20588157 0.13835801
0.09672017 -0.06303043 -0.147402 -0.21719916 0.04948028 0.14277698 -0.17245752 -0.06961881
0.19918095 -0.038117412 0.15828519 -0.07815702 -0.14854912 -0.024577264 0.0049432972 -0.19556555
-0.060544908 0.08911045 0.1320433 0.03499091 0.08640042 0.055363983 0.21787934 -0.02302628
0.31546053 0.061913 -0.24132125 0.13960348 0.19908936 -0.15883186 -0.113313206 -0.093571275
0.024146272 0.16218649 -0.023777308 0.19743313 0.04574979 -0.0048249788 0.1900075 0.03470332
-0.02004906 -0.043585155 0.10722059 0.13310115 0.17272946 -0.1096026 0.12853774 0.038970318
0.25290227 -0.18727478 0.03249297 -0.17577402 -0.12329458 -0.024735413 -0.073607996 0.13918965
-0.17290123 -0.05055661 0.06285006 0.11647555 0.2610591 -0.094314165 0.2820688 0.07411562
-0.21311055 0.1584819 0.009938373 0.24276266 -0.086840086 0.20551917 0.026709447 0.049712833
-0.21409862 0.29131547 -0.13753125 0.087750666 0.12933229 -0.05539719 0.2955697 -0.0674572
0.26205295 -0.06649642 -0.19201899 0.100509316 0.22002617 -0.12788421 -0.05300022 -0.30930534

weight f4 [64, 128]
00000000: d073 7fbd 09b3 553c 37bf bc3d 9daf 553d
00000010: c34b 67bd 4bf3 5c3d 800f a63c 6099 443d
00000020: a436 a03c adfd d4bd 055c 853b 7275 21bc
00000030: 6277 393c 30fc 83bd 1f9c 323d e798 c83b
00000040: 1c10 e93a fdb7 f83c 7a0b 653d 0040 c6b8
00000050: 360a 013e 14f7 87bd d8dc 20bd 103e a13c
00000060: fdc8 0a3c 99db 5d3d 45b3 69bc 1079 9b3d
00000070: 2d6a 2ebd b980 97bd bd2f c03c d244 433c
00000080: e702 5a3c 4031 97bd ca76 cebc 973b ad3d
00000090: 0e99 983d 0908 92bb 311c 023e 84ab ba3c
000000a0: d3c0 233b 4cec 8cbd 1a2e bc3c 9f11 1b3d
000000b0: ffdd 08bd 5029 bf3d 5ee6 18bd 1c93 1b3e
000000c0: 7b1e 81bd ee83 e23d 089b 223c 3076 26bd
000000d0: 5dab 8cbd 0ab1 2d3c 4c98 c63d a4b3 b53c
000000e0: 51e1 1e3d 6e44 173d 2c73 1f3b 48fb e7bc
000000f0: 5b6d 963b a756 1f3d dc9c a73d fd9c 74bd
00000100: 5066 943b 138f 63bd 3d78 f23c dd35 6bbd
00000110: a987 d6bc e6a8 1bbd 7049 e3bc 3864 37bd
00000120: 0b56 be3c a2a5 d53c a81f 8c3d b424 203d
00000130: f860 b5bb 8f9d acbc 4bf2 3c3d eb4d 703d
00000140: a394 b63c 1031 eb3b 3941 033d 566a 143d
00000150: 23e9 0d3c 6752 c13a 7770 a13c 1044 60bc
00000160: 49db e53c 7f39 b1bd e6ec 87bd fac2 2e3c
00000170: 44a5 423d d440 a0bd 9c1a 0a3d 5915 9b3d
00000180: 2148 a6bc b9ac cb3c 755d 8e3d bbf1 0dbd
00000190: b780 09bd 1b28 4ebc d54b a0bd a080 913d
000001a0: 898d a33d 02e2 2cbd 1f7e 863d b58a a0bc
000001b0: 5924 9abd 5864 2e3d e51f 3cbd 5849 6d3d
000001c0: 2120 563d 7b8b 21bd 1656 2ebd 6054 123d
000001d0: 4687 933d 3751 6ebd 4029 d6bc 8fa8 743d
000001e0: 2f21 873d 7f77 bebd 6f42 573c d94a 51bc
000001f0: d1cd 9bbd fe14 51bd d388 8b3d 444b 783d
00000200: aa48 793d a30a c23c 5ac1 94bd 2d22 26bd
00000210: 9238 55bd 2112 d23d f48a f7bc 32da 6a3c
00000220: fdbd 92bd e1fc d53d 93e2 783d 85e8 83ba
00000230: f8d5 b0bd a4ad a03c 404f 543d e620 36bb
00000240: 7c4a 61bc 0e93 02bd 9795 b2bd dc40 a33d
00000250: 57bc a9bd 1b83 9d3d 0a40 51bc 299c 49bc
00000260: 567e f1bc cafa b13c bc76 b7bb 2483 6e3d
00000270: 4a9c f5bb 3297 213d 3c13 993c 0d78 5fbd
00000280: b571 573d 52e5 c1bb dbdc a03d 4fe0 873d
00000290: b616 8f3d 1647 c43c 8a27 62bc b3c1 873c
000002a0: 6f03 a53d a5a7 95bd 5165 543d e0e2 963d
000002b0: d87f 4a3d a235 c7bc 4f5b 7bbc b33e d13c
000002c0: d099 233d 1574 0abd ea45 463c 1977 0fbd
000002d0: 941d 493d 7050 8ebd a187 0d3d 0e04 843b
000002e0: db02 5bbd 3a59 0c3c 1f09 583d 14be 52bd
000002f0: 41f8 713d d112 88bd 3560 353d d863 873d
00000300: 922c 6a3d 73e9 c43d 48cb 44bd d6aa 7bbd
00000310: ad9b 0fbd f3df 853d ab16 b5bc 9f93 9abd
00000320: 5f80 483d 4195 1dbd b034 9dbb 81e4 9e3d
00000330: a711 e13d 318b 2b3d cc2a 213d 1234 8e3c
00000340: 54a2 b73d 2249 723c 2e3c 9cbd 5a94 2bbd
00000350: fcdc 853d 61b1 0cbd b149 85bd e372 13bc
00000360: d46c 183c 8eec 743c 22bb ac3d c501 a1bc
00000370: a855 bebb e35b 8ebc 13e4 f9bc b9e8 cabc
00000380: 58b5 ab3d 0bd2 763d 7b59 86bd eaf4 5cbc
00000390: 2e78 00bd 7d15 b2bd ea78 243d 11b2 8cbb
000003a0: a608 a03d da07 6fbd 930f 9ebd 7556 f8bc
000003b0: ccfa 643d 86a6 2f3d 1176 a1bd 435b 8cbd
000003c0: bf52 983c 21da 2dbd cd08 443d b0ac d0bc
000003d0: 5642 f8bc c57f 373d 5082 2bbd 3439 00bd
000003e0: a668 733d a179 7b3d dd23 b53d bb8d e1bc
000003f0: 9d20 4bbd d327 43bd 04e8 8bbd a1bc d23d
-0.062366307 0.013043174 0.09216159 0.05216943 -0.056468736 0.05394296 0.020271063 0.047997832
0.019557305 -0.10399947 0.0040698075 -0.009854661 0.011319967 -0.06444585 0.04360592 0.006121743
0.001778129 0.03036117 0.055919148 -9.453297e-05 0.12601551 -0.06638923 -0.039273113 0.019682914
0.008470771 0.054164503 -0.014263933 0.0759145 -0.042581726 -0.07397599 0.023460263 0.0119182635
0.013306356 -0.073824406 -0.025203127 0.084586315 0.07451068 -0.0044565243 0.12706067 0.022786863
0.0024986758 -0.068810076 0.022971202 0.0378586 -0.033414837 0.093340516 -0.03732907 0.15192837
-0.06304642 0.1106032 0.009924658 -0.040640056 -0.068686225 0.010601291 0.09697017 0.022180386
0.038789097 0.036930494 0.0024330122 -0.028318062 0.004590673 0.038900997 0.081842154 -0.05972003
0.004528798 -0.055556368 0.02959835 -0.057424415 -0.026187735 -0.03800287 -0.027744979 -0.04477331
0.023234388 0.026079956 0.068419755 0.039097503 -0.005535241 -0.021071224 0.046129506 0.05866806
0.022287672 0.0071774796 0.032044623 0.036234222 0.008661541 0.0014749289 0.019706948 -0.013688102
0.028058665 -0.08653545 -0.06636982 0.010666603 0.04752089 -0.07824865 0.033716783 0.07572431
-0.020298066 0.024862634 0.06951419 -0.03465436 -0.033570018 -0.012582804 -0.07826964 0.071046114
0.0798598 -0.042207725 0.065670244 -0.01959739 -0.07526464 0.042576164 -0.045928854 0.057931274
0.052276734 -0.03943966 -0.042562567 0.035724998 0.07203536 -0.05818292 -0.026142716 0.059731063
0.06598126 -0.09300136 0.013138398 -0.012774193 -0.07607616 -0.05104541 0.068132065 0.060618654
0.060860313 0.023686713 -0.072634414 -0.040559936 -0.052055903 0.10257364 -0.030217625 0.014334248
-0.07165144 0.104486234 0.060762953 -0.0010063803 -0.08634561 0.019614048 0.05183339 -0.0027790605
-0.013750669 -0.031878524 -0.08719938 0.07971355 -0.08287876 0.07691022 -0.012771616 -0.012305298
-0.029479187 0.02172603 -0.005598871 0.058230534 -0.0074954377 0.03945083 0.01868593 -0.05455785
0.052598674 -0.0059172297 0.07854625 0.0663458 0.06986754 0.023959678 -0.013803372 0.016571855
0.080572955 -0.07307366 0.051854435 0.07367492 0.049438328 -0.024317566 -0.015341594 0.025542593
0.03994161 -0.03380211 0.01210163 -0.03502569 0.049100474 -0.06948936 0.034553174 0.0040288037
-0.05346952 0.008566195 0.052743074 -0.051450804 0.059074644 -0.06644214 0.044281203 0.066108406
0.05717141 0.096148394 -0.048045427 -0.06144222 -0.035060573 0.065368555 -0.022105535 -0.07547688
0.04895055 -0.038472418 -0.0047975406 0.077584274 0.10989695 0.04188079 0.039347455 0.017358813
0.089665085 0.014787944 -0.07628666 -0.041889526 0.0653629 -0.03434885 -0.06508196 -0.008999559
0.00930329 0.014948977 0.0843413 -0.019654164 -0.005808551 -0.0173778 -0.030504262 -0.024769174
0.08384198 0.060258906 -0.06560036 -0.013486126 -0.031364612 -0.08695505 0.040154375 -0.004293688
0.078141496 -0.058357097 -0.07717814 -0.030314663 0.05590324 0.04288342 -0.078838475 -0.06853344
0.018594144 -0.042444352 0.047859956 -0.025472969 -0.030305069 0.044799585 -0.041872323 -0.031304553
0.059425972 0.06139529 0.08844731 -0.027533403 -0.04959165 -0.0476454 -0.06831363 0.10289884

bias f4 [64]
00000000: 2954 9cbd 9481 a43d 730e 303d 9d7a 7b3e
00000010: 8728 5c3d 6ed9 9b3d 9ea8 88bc 0ddf 0ebd
00000020: 2313 57bd 43a1 1d3e 7d18 bcbd a0cc 2abd
00000030: 22a1 d03d b1fe ee3d f4d7 423d d800 8a3b
00000040: 762b 1a3d bf7f 863e 9080 ae3d f2f0 7e3e
00000050: 334d 90bd 438a fabb 53e2 b8bd 9deb 973d
00000060: e259 2dbd 1b24 db3b 9555 76bd 8229 793d
00000070: 245b a73d ea31 183c d97c 4fbd 2190 3f3b
00000080: aafa 96bd 5ccc 8b3d ab75 203e 993f 1ebd
00000090: 7aef 1b3d 5182 4c3e 9f95 cf3d fa4a 753d
000000a0: 97ab 6b3d 06d2 87bd 7210 5c3c 68f3 9fbd
000000b0: c2a7 d0bc 8470 9cbc a35e ea3d c58f 593c
000000c0: c4fd ab3b ba36 adbd 3f01 6d3c e008 5ebd
000000d0: 6cf3 843c 91fd 9a3d ed7a fcbc 471a 1bbd
000000e0: 77dc c43d 4881 eb3b bae7 5b3e f503 523e
000000f0: 22c5 ce3d 6780 e23c e0c8 37bb 5ff7 043e
-0.0763324 0.080325276 0.04298253 0.24558492 0.053749587 0.07609831 -0.016681965 -0.034880687
-0.052508485 0.15393548 -0.09184358 -0.04169905 0.10186984 0.11669672 0.04756923 0.0042115264
0.037639104 0.26269338 0.08520615 0.24896601 -0.070459746 -0.0076458766 -0.09027543 0.074179865
-0.042322047 0.0066876537 -0.06014021 0.0608306 0.081716806 0.009289244 -0.050656173 0.0029230195
-0.07372029 0.06826088 0.15669887 -0.03863487 0.03807018 0.19971587 0.1013596 0.059885956
0.057536688 -0.06631856 0.013431655 -0.07810098 -0.025470618 -0.01909662 0.11443832 0.013278906
0.005248757 -0.08457704 0.014465629 -0.054207683 0.016229354 0.07567895 -0.030820334 -0.037866857
0.09612363 0.0071870424 0.21475115 0.20509322 0.10096194 0.027649118 -0.0028043315 0.1298499

weight f4 [1, 64]
00000000: 39d6 993e 6b7a 41be 15a1 70be 80a9 7abf
00000010: 086d 25be 2fc4 68be dbd0 1a3f 10fd 80bd
00000020: 7099 0b3e d79a a1be f829 b83c a01c 0fbe
00000030: 6a78 ab3e 25b3 08be 949d 983d 938d 293e
00000040: 6ec8 603d c008 61bf 23b4 06be 0a46 18bf
00000050: 9648 da3e 5c10 293e 8c92 f6bc a7b4 d23e
00000060: 8d4b 0c3e 687a 093f 6602 713c bb7c 713e
00000070: 80fa 0e3e 4328 27bd 191a a63d 181e 33be
00000080: c551 4dbd 7a29 7dbc 8cb5 c7be 816c 283e
00000090: d1e3 f53e 146b 26bf 179c ecbd 6d1f cdbc
000000a0: 5a20 353e 8707 283d c455 1839 409f 173c
000000b0: 9c4f e13e 29f5 003f c7fd e6be 6ee8 e7bd
000000c0: 06c5 ea3d 1ad6 06bd 0c5a 71be 38e5 cdbc
000000d0: 5178 5d3e a0f5 09bf 145a 513e 1375 503e
000000e0: 6790 6dbe 730f 30bd f552 35bf c3a8 31bf
000000f0: 4895 89be ce52 d33d 83ca 0ebd 1b07 d7be
0.3004625 -0.18894355 -0.23498948 -0.97914886 -0.16154873 -0.22731088 0.6047494 -0.06298268
0.1363275 -0.31563446 0.02248095 -0.13975763 0.33490306 -0.13349588 0.07451931 0.16557913
0.054878645 -0.87903976 -0.13154654 -0.5948187 0.42633504 0.16510147 -0.030099176 0.41153452
0.13700695 0.537024 0.0147100445 0.23582737 0.13962746 -0.04080988 0.081104465 -0.17491949
-0.05012681 -0.015451783 -0.39005697 0.16447641 0.48025373 -0.6500714 -0.11553209 -0.025039399
0.17688122 0.041022804 0.000145278 0.009254277 0.4400605 0.50374085 -0.45115492 -0.11323629
0.114633605 -0.032919027 -0.23569506 -0.025133714 0.21627928 -0.5389042 0.20444518 0.2035716
-0.23199616 -0.042983484 -0.7082971 -0.69398135 -0.26871705 0.10318528 -0.0348611 -0.4199761
