Fall 2022/CMSC 352 – Machine Learning/Assignment 4/NeuralNetwork2.pt (torch, 19285 bytes, 7 tensors)

weight f4 [64, 17]
0	0x3e2d2784	0.16909605
1	0xbe3b37ae	-0.18282959
2	0xbdc5e767	-0.09663277
3	0x3e7e3278	0.2482394
4	0x3e30f9e3	0.17282824
5	0xbdc44a99	-0.09584541
6	0xbe36b025	-0.17840631
7	0xbdc20580	-0.09473705
8	0xbc2ed180	-0.010670066
9	0x3dc1901e	0.09451316
10	0xbdc62281	-0.0967455
11	0x3d55f9b1	0.052240077
12	0x3e0de27a	0.13855925
13	0x3e14379e	0.14474341
14	0xbd3a3b55	-0.04546674
15	0x3b88bc31	0.004172825
16	0xbe4af765	-0.19820936
17	0x3e7b4dc4	0.24541384
18	0xbdffc562	-0.1248882
19	0xbce2f42c	-0.02770432
20	0x3e8e365c	0.27775848
21	0xbeaa5c01	-0.33273318
22	0xbcdc3249	-0.026879447
23	0xbdde6d0b	-0.10860642
24	0x3c6e36c9	0.014539429
25	0x3cf53e2f	0.029936878
26	0xbe940215	-0.28907838
27	0xbd997452	-0.074928895
28	0x3e4debe7	0.20109521
29	0x3e3c53e9	0.18391384
30	0xbe9116a9	-0.283376
31	0x3dc9a315	0.098455586
32	0xbe430406	-0.19044504
33	0x3e04a059	0.12951793
34	0x3eb81138	0.35950637
35	0x3e61d32a	0.22053209
36	0xbdb4d40b	-0.088295065
37	0xbd6f7534	-0.058461383
38	0x3e9d02fe	0.30666345
39	0xbd65e5c7	-0.056127336
40	0xbdd1ef61	-0.10250736
41	0x3e289373	0.16462497
42	0x3db8a3ca	0.09015615
43	0xbdfb7125	-0.1227744
44	0xbe764e5e	-0.24053332
45	0x3daf5088	0.08560282
46	0x3c5fcdee	0.013659937
47	0x3be10725	0.006867307
48	0xbd96b1a4	-0.07358101
49	0x3e1bfb05	0.15232475
50	0xbdd74c01	-0.105125435
51	0xbd32663b	-0.043554526
52	0xbe52cfd4	-0.20587093
53	0xbe80a3de	-0.2512502
54	0xbe3c9c8d	-0.18419094
55	0x3db3f41d	0.08786795
56	0xbe0a3466	-0.13496551
57	0x3e417a9c	0.18894428
58	0xbe23869f	-0.15969323
59	0x3befa558	0.0073134117
60	0xbc4fc96e	-0.012682302
61	0xbe9ed924	-0.3102504
62	0x3ebd7928	0.37006497
63	0x3e437498	0.19087446
64	0xbe0c2894	-0.13687354
65	0xbdb64285	-0.08899406
66	0x3cbc126e	0.022958007
67	0x3dcf5ab7	0.10124724
68	0xbe32d60a	-0.17464462
69	0xbdadaf50	-0.08480704
70	0xbdd3b843	-0.103378795
71	0x3d2c6ec2	0.042097814
72	0xbe018c6c	-0.12651223
73	0xbd36ebec	-0.044658586
74	0xbe121638	-0.14266288
75	0x3e4254b5	0.18977626
76	0xbd129469	-0.035786066
77	0xbd5cfee5	-0.053954024
78	0xbede2626	-0.4338848
79	0x3e59fb46	0.2128726
80	0xbde0e76b	-0.109816395
81	0x3e7b08c1	0.24515058
82	0x3e3439a6	0.17600116
83	0xbe47b1de	-0.19501445
84	0x3e087557	0.13326012
85	0xbd9228e0	-0.071367025
86	0xbddfce73	-0.10928049
87	0x3df91c6c	0.12163624
88	0x3e277438	0.16352928
89	0x3e76c962	0.24100259
90	0x3e075cc8	0.13218987
91	0xbd7c4df9	-0.061597798
92	0xbe38a3c0	-0.18031216
93	0x3e433687	0.1906377
94	0x3e495289	0.19660391
95	0x3da04849	0.07826287
96	0xbe42aa07	-0.19010173
97	0x3cbbc3cf	0.022920517
98	0xbe757de9	-0.23973812
99	0x3e5f762e	0.21822426
100	0xbe21d647	-0.15804397
101	0xbe602242	-0.21888068
102	0x3e974217	0.2954261
103	0x3e580f8b	0.21099679
104	0xbe70398c	-0.23459452
105	0x3e6fb316	0.2340816
106	0x3e1a6a67	0.15079652
107	0x3e432a07	0.19059001
108	0xbc357026	-0.011074102
109	0xbe232ca1	-0.15934993
110	0x3e1dd061	0.15411521
111	0xbe58e082	-0.21179393
112	0x3d0cff2f	0.03442305
113	0x3e56c181	0.20972253
114	0x3cc4c854	0.024021305
115	0xbdfa99d9	-0.12236375
116	0xbe4e40bf	-0.20141886
117	0x3d5f8f20	0.054579854
118	0x3ddc0ec7	0.10745006
119	0xbe15c68a	-0.14626518
120	0x3be3f60e	0.0069568222
121	0xbdf7f092	-0.12106432
122	0xbe8f968b	-0.28044543
123	0x3d9d882c	0.07691988
124	0x3e366c6b	0.17814796
125	0x3de336dc	0.11094448
126	0x3ca5bc1b	0.020231297
127	0xbe1fc540	-0.15602589
128	0xbdb38ae8	-0.08766729
129	0xbd534fda	-0.051589824
130	0xbe51d9c3	-0.20493226
131	0xbe7fa1c1	-0.24964048
132	0x3e6a08da	0.22854939
133	0xbe22aeb8	-0.15886962
134	0xbc8fd689	-0.017558353
135	0x3ddac569	0.10682184
136	0xbe8c2166	-0.2736923
137	0x3de4483f	0.11146592
138	0x3e05ad99	0.13054504
139	0xbdaf3332	-0.085546866
140	0x3e7daeac	0.24773663
141	0xbd5b2adc	-0.05350767
142	0x3d685a07	0.05672648
143	0x3d3004f9	0.042973492
144	0x3e0635f7	0.13106523
145	0xbdf23b75	-0.11827747
146	0xbc71f94b	-0.014768909
147	0x3e60a713	0.21938734
148	0xbbd89ff0	-0.006610863
149	0xbe60d6a8	-0.21956885
150	0xbc76e2b2	-0.015068697
151	0xbe8fac89	-0.2806132
152	0x3e03d4bc	0.1287412
153	0x3e650774	0.22366124
154	0x3d4df620	0.05028355
155	0xbe526f5f	-0.20550297
156	0xbe3c0cf5	-0.18364318
157	0xbb83d4a8	-0.0040231533
158	0xbe426d50	-0.18987012
159	0x3dae4f15	0.085111775
160	0xbd28023d	-0.04101776
161	0x3bb1ace4	0.0054222215
162	0xbe6e222c	-0.23255223
163	0xbe8f29f7	-0.27961704
164	0xbd8826dc	-0.06648037
165	0xbe1b313d	-0.15155502
166	0xbe23fb83	-0.16013913
167	0x3e0a0415	0.1347812
168	0xbe617967	-0.22018968
169	0x3d8f26e2	0.06989838
170	0xbeb75c42	-0.35812575
171	0xbe90ba65	-0.28267208
172	0xbe94b062	-0.2904082
173	0xbd07748f	-0.033070143
174	0x3e5e44b1	0.21705891
175	0x3d51848f	0.05115181
176	0x3e65533f	0.22395037
177	0xbdc47fd3	-0.09594693
178	0xbde06a7d	-0.10957811
179	0x3c0bcab7	0.008532218
180	0xbdb6a321	-0.08917833
181	0xbe20a5b6	-0.15688214
182	0xbb2578da	-0.0025249035
183	0xbe34cc2a	-0.17656007
184	0xbc1fd80a	-0.009756098
185	0xbe2fd17c	-0.17169756
186	0xbe522f9d	-0.20525976
187	0x3e208fbc	0.1567983
188	0xbe2c05c5	-0.16799076
189	0xbe83748a	-0.2567485
190	0x3e6ab44d	0.22920342
191	0x3beae35c	0.0071682166
192	0xbe11ad19	-0.14226188
193	0xbd165f7a	-0.036712147
194	0x3de6ecc5	0.11275629
195	0x3e6915fe	0.22762296
196	0xbc53157f	-0.012883543
197	0xbe80a1d8	-0.25123477
198	0x3de725bd	0.11286495
199	0xbc68460d	-0.014176858
200	0xbe441b9d	-0.19151159
201	0xbd1105dc	-0.03540598
202	0xbdd139ce	-0.102161035
203	0x3900b959	0.00012276079
204	0xbcd0cb35	-0.025487522
205	0xbe51358c	-0.20430583
206	0x3d11fe48	0.035642892
207	0xbe2e9a24	-0.17050987
208	0xbd77d458	-0.06050524
209	0xbcc69ae0	-0.024243772
210	0xbb6e43e3	-0.0036356382
211	0xbc5fb2b0	-0.013653442
212	0xbdd530a8	-0.10409671
213	0x3e6738ce	0.22580263
214	0xbe78f261	-0.2431121
215	0xbe538e7b	-0.2065982
216	0xbe84981f	-0.2589731
217	0x3d1da5ac	0.038488075
218	0x3e6680fc	0.22510141
219	0xbe4643b6	-0.19361767
220	0x3dbcfc24	0.092277795
221	0x3ddb8d3c	0.10720298
222	0x3d5a5cca	0.053311147
223	0xbe28b0b4	-0.16473657
224	0x3d65b71d	0.056082834
225	0xbbc70f71	-0.006074839
226	0xbdd2bacf	-0.10289537
227	0x3d1d542b	0.038410347
228	0xbd18781c	-0.03722392
229	0x3e7daac2	0.2477217
230	0x3e0ef76d	0.13961573
231	0x3da620ea	0.081117466
232	0xbe3d7140	-0.18500233
233	0xbe52cbf0	-0.20585608
234	0xbe0eb6fc	-0.1393699
235	0x3d8ad2f7	0.067785196
236	0x3b9e01bf	0.0048219855
237	0x3e2d1949	0.16904177
238	0x3e5f89d2	0.21829918
239	0xbc30148b	-0.010747085
240	0x3e7fc821	0.24978687
241	0xbdedb475	-0.11606685
242	0x3e618259	0.2202238
243	0xbd2ae2ef	-0.041720327
244	0x3e6321cf	0.22180866
245	0xbe36d9aa	-0.1785647
246	0xbd2078cc	-0.0391777
247	0x3d931830	0.07182348
248	0xbde4252d	-0.11139903
249	0x3e282bb3	0.1642292
250	0x3e446973	0.1918085
251	0x3e77b013	0.2418826
252	0x3e1a515d	0.150701
253	0x3dac23a0	0.084052324
254	0x3e105e68	0.14098513
255	0xbe7e3663	-0.24825434

bias f4 [64]
0	0x3d489835	0.04897328
1	0x3e0aa999	0.13541259
2	0xbb6cf0db	-0.0036154303
3	0x3dab8561	0.083750494
4	0xbd852d6a	-0.06502803
5	0xbe3281ff	-0.17432402
6	0x3d53a597	0.05167159
7	0xbda8f9a2	-0.08250739
8	0x3d16bd1d	0.036801446
9	0xbcc2ab36	-0.02376328
10	0x3e245875	0.16049369
11	0x3e609140	0.21930408
12	0x3cf81f19	0.030288266
13	0xbe66a4bb	-0.22523777
14	0xbe3e3949	-0.1857654
15	0xbcbbfc66	-0.022947501
16	0x3eca4432	0.39505154
17	0x3e51cc5f	0.20488118
18	0xbe1f2418	-0.15541112
19	0xbdacde3c	-0.08440825
20	0x3d3b3ef7	0.045714345
21	0x3e4c09a9	0.1992556
22	0x3e34558c	0.17610759
23	0xbe6b1678	-0.2295779
24	0xbe27c734	-0.16384584
25	0x3df5d99a	0.12004395
26	0xbe46de8f	-0.19420837
27	0xbdd1b431	-0.10239447
28	0x3d0c94cf	0.034321602
29	0x3e505708	0.203457
30	0x3df51989	0.11967761
31	0x3e8641d6	0.26222104
32	0x3e7c42a9	0.24634804
33	0xbc5d35ce	-0.013501598
34	0xbdff68db	-0.124711715
35	0x3e83b985	0.25727478
36	0x3e2976b2	0.16549185
37	0xbdcf64db	-0.101266585
38	0xbe59b36d	-0.21259852
39	0x3e086639	0.13320245
40	0xbe0a653c	-0.1351518
41	0xbdef68b0	-0.116898894
42	0xbe0c9149	-0.13727297
43	0x3e17f58e	0.14839765
44	0x3e11c124	0.14233834
45	0x3e4e1f00	0.20129013
46	0xbe6825e2	-0.22670701
47	0x3daefebd	0.08544681
48	0xbd68d405	-0.056842823
49	0x3deaa811	0.114578374
50	0xbe77b9e2	-0.24192002
51	0x3d660bd6	0.05616363
52	0xbc3aef6c	-0.011409622
53	0x3d524536	0.051335536
54	0xbe141f33	-0.14465027
55	0x3c348b27	0.011019505
56	0x3e2e35c8	0.17012703
57	0xbe8af8de	-0.27142996
58	0x3d4d9a1a	0.05019579
59	0x3e0a2cf4	0.13493711
60	0x3dc46aa1	0.0959065
61	0xbe18ac0b	-0.14909379
62	0x3e05d2c3	0.1306868
63	0x3e8c593d	0.27411833

weight f4 [32, 64]
0	0x3dff6b42	0.1247163
1	0x3e2edea4	0.17077118
2	0xbdf95751	-0.121748574
3	0xbd91f5d2	-0.07126965
4	0xbe07700a	-0.13226333
5	0x3e090a88	0.13382924
6	0x3d246694	0.04013689
7	0x3d39bdf8	0.045347184
8	0x3e7e6c6d	0.24846049
9	0xbdbcdaad	-0.092213966
10	0x3e2e07ec	0.1699521
11	0xbc9d2b5d	-0.019185716
12	0xbd8cd652	-0.06876816
13	0xbdc8f972	-0.09813203
14	0xbd50ab2b	-0.05094449
15	0xbe4ff175	-0.20306952
16	0x3e9795cb	0.2960647
17	0x3cf96bbb	0.030446878
18	0xbdb02a32	-0.08601798
19	0xbe1f310b	-0.15546052
20	0x3d21f3ee	0.03953927
21	0x3dbea70e	0.09309207
22	0xbd14e25f	-0.036348697
23	0x3d47ab7d	0.04874753
24	0xbccefbe3	-0.025266593
25	0x3e02f0c8	0.12787163
26	0xbdaf52ba	-0.08560701
27	0x3d953ec6	0.07287364
28	0xbde38d9f	-0.111109965
29	0x3e030c82	0.1279774
30	0x3e08f846	0.13375959
31	0x3e6a2ad8	0.22867906
32	0x3e452e34	0.19255906
33	0x3e28a215	0.1646808
34	0x3d00ba53	0.031427693
35	0xbdd0bf55	-0.10192744
36	0xbd1c715c	-0.038194045
37	0xbdb066cf	-0.08613359
38	0xbcd11fb3	-0.02552781
39	0x3c984e38	0.018591985
40	0x3e08536e	0.13313076
41	0x3e073153	0.1320241
42	0xbd1f1a71	-0.038843576
43	0xbda29a93	-0.07939639
44	0x3c980bdb	0.01856034
45	0x3d49740f	0.049182948
46	0x3dbbebb4	0.09175816
47	0xbd02ca98	-0.03193149
48	0x3e1865e0	0.14882612
49	0x3d7f2fb3	0.06230135
50	0x3e31e49f	0.17372368
51	0xbe00884a	-0.1255199
52	0x3e2ef58e	0.17085859
53	0xbd8b659a	-0.06806488
54	0xbd7d3747	-0.061820295
55	0x3e3e7987	0.18601047
56	0xbd1974fd	-0.037465084
57	0x3dfad6c6	0.12247996
58	0x3e03bfa7	0.12866078
59	0x3da5b105	0.080904044
60	0xbd10089b	-0.035164457
61	0x3e2ce4fa	0.16884223
62	0xbe139903	-0.14413838
63	0xbd40dcc2	-0.04708553
64	0xbc2490f3	-0.010044324
65	0xbd92b679	-0.0716371
66	0xbddfb082	-0.10922338
67	0x3e2448a0	0.16043329
68	0x3e064cbb	0.13115208
69	0xbdafd61a	-0.085857585
70	0xbdad9e1a	-0.08477421
71	0xbd732ffe	-0.05937194
72	0x3d22b619	0.039724443
73	0xbd95b62d	-0.07310138
74	0xbcb7df54	-0.022445358
75	0x3d5e2d2a	0.05424229
76	0x3dd181af	0.10229813
77	0xbd4644e2	-0.048405536
78	0xbc64340b	-0.013928424
79	0xbc589a7c	-0.013220426
80	0xbe21efae	-0.15814087
81	0xbd98b2fe	-0.07456015
82	0x3cb2e0be	0.021835681
83	0x3c54ea6d	0.012995345
84	0xbd37d131	-0.044877235
85	0xbd9a5f85	-0.0753775
86	0xbe00acde	-0.12565944
87	0x3d3e6c99	0.046490286
88	0xbce9ec25	-0.028554985
89	0xbd807741	-0.06272746
90	0x3c670cd8	0.014102183
91	0x3cb4bdb4	0.022063114
92	0x3dab5721	0.08366228
93	0xbd815a7a	-0.06316085
94	0x3ddb2f20	0.10702348
95	0xbd3fda5a	-0.046839096
96	0x3d8ace3a	0.06777616
97	0x3da1071c	0.07862684
98	0x3d55ff0f	0.052245196
99	0xbda022e5	-0.078191556
100	0xbc5c1a24	-0.013433967
101	0x3d1a1468	0.037617117
102	0x3d5bd64b	0.053671163
103	0xbc4ef1ac	-0.012630861
104	0xbde5a17e	-0.11212443
105	0xbe1957d0	-0.14974904
106	0x3da68bbb	0.0813212
107	0xbb4a9c1b	-0.00309158
108	0x3e1c71fb	0.15277855
109	0xbdafa02b	-0.085754715
110	0xbcaca690	-0.021075517
111	0x3dbdb804	0.09263614
112	0x3d5f30cc	0.054489896
113	0xbdcbf30a	-0.099584654
114	0x3da4dc1c	0.08049795
115	0xbcf7f8cf	-0.030270008
116	0x3db3422a	0.08752854
117	0x3e031437	0.1280068
118	0xbdacb4ef	-0.08432948
119	0xbdf759df	-0.120776884
120	0xbda118a2	-0.078660265
121	0xbd801a56	-0.06255023
122	0xbd9e58d7	-0.077317886
123	0x3db52d99	0.08846588
124	0xbe1802bf	-0.14844798
125	0x3c7be098	0.015373372
126	0x3e3ec7eb	0.1863095
127	0xbd74e929	-0.05979267
128	0x3de7e953	0.113238
129	0x3df3396d	0.118761875
130	0x3e00d26c	0.1258027
131	0x3c8be053	0.01707474
132	0xbd5990a9	-0.053116474
133	0xba93acf0	-0.0011266749
134	0x3e0665a5	0.13124712
135	0xbe145fbd	-0.14489646
136	0xbcc40c63	-0.023931688
137	0x3dec8d1a	0.115503505
138	0x3de76c87	0.11299997
139	0xbd8b1180	-0.06790447
140	0xbe0f4a55	-0.13993199
141	0xbd98090e	-0.07423602
142	0x3d8f98e9	0.07011587
143	0xbd8c3b09	-0.068471976
144	0xbd9c4f3a	-0.07632299
145	0x3d92885a	0.07154913
146	0xbe0ac9c2	-0.13553527
147	0xbcc271d1	-0.023735913
148	0x3cdf595b	0.027264288
149	0x3e2cf85e	0.1689162
150	0x3dd49db8	0.10381645
151	0xbd015631	-0.03157634
152	0xbdf0baf9	-0.11754412
153	0xbc5a4fe5	-0.013324712
154	0x3d509b7d	0.050929535
155	0xbd80e891	-0.062943585
156	0x3d51f7d9	0.051261757
157	0xbded2446	-0.11579184
158	0xbd8a6575	-0.06757633
159	0x3c302bf4	0.010752667
160	0x3b20e8aa	0.002455274
161	0xbd0702fd	-0.032961834
162	0x3dcaa616	0.0989496
163	0x3d341ed0	0.043974698
164	0x3d86a18a	0.0657378
165	0x3d80209b	0.06256219
166	0xbda5cf2d	-0.08096156
167	0xbdb86610	-0.09003842
168	0xbd58bfa6	-0.052917145
169	0x3d011cd2	0.031521626
170	0xbce97ad9	-0.028500961
171	0xbdc82e3f	-0.09774446
172	0xbd857e46	-0.06518225
173	0x3c7960ed	0.015220863
174	0xbdbd8a4e	-0.09254895
175	0x3e102def	0.14080022
176	0x3e07516e	0.13214657
177	0x3d897571	0.06711853
178	0x3d653015	0.055954058
179	0xbba15c6d	-0.004924348
180	0x3dcb21fa	0.0991859
181	0x3d4c36ae	0.049856834
182	0x3da36525	0.07978276
183	0x3d98ffd4	0.0747067
184	0x3d51faff	0.05126476
185	0x3e135ed8	0.14391649
186	0x3db8ff53	0.09033074
187	0x3d217fe5	0.03942861
188	0xbd3dc30d	-0.046328593
189	0xbe0aab27	-0.13541852
190	0xbd970fa2	-0.073760286
191	0xbe05f207	-0.13080607
192	0xbd41df8d	-0.047332335
193	0x3b4b36bc	0.0031007966
194	0xbd9d3f91	-0.0767814
195	0xbdc758ea	-0.09733756
196	0x3ab6c2f3	0.0013943597
197	0xbd73f66a	-0.05956117
198	0xbd230d8a	-0.039807834
199	0xbd83f1f1	-0.06442631
200	0x3bbbf661	0.0057361578
201	0xbdc39c0a	-0.095512465
202	0x3da65150	0.08120978
203	0xbc1e50a1	-0.009662778
204	0x3e000b5f	0.12504338
205	0x3cf53895	0.029934207
206	0x3d7d9018	0.061904997
207	0xbcb296a6	-0.02180035
208	0xbd2592a8	-0.040423065
209	0xbc6102f9	-0.013733619
210	0x3d2a3460	0.041553855
211	0xbdcd2e26	-0.10018568
212	0xbd76dcd4	-0.06026919
213	0xbc92c771	-0.017917367
214	0xbdf09694	-0.117474705
215	0xbce35384	-0.027749784
216	0xbbbafaaa	-0.005706151
217	0x3c8161e6	0.015793752
218	0xbd94e373	-0.07269945
219	0x3dab63e3	0.08368661
220	0xbe0b5ab4	-0.13608819
221	0x3d65f338	0.056140155
222	0x3e027f28	0.12743819
223	0x3ded4c4c	0.11586818
224	0x3d809c91	0.06279863
225	0x3d270663	0.040777575
226	0xbd97bc84	-0.074090034
227	0x3d937ebd	0.07201908
228	0xbd4a9ea0	-0.049467683
229	0x3d9abd34	0.07555619
230	0xbce62711	-0.0280948
231	0xbc25ac54	-0.010111887
232	0x3c3ad4d4	0.011403281
233	0xbe004067	-0.12524568
234	0xbd9e792b	-0.07737955
235	0x3db030bc	0.08603045
236	0x3d9d99cb	0.07695349
237	0x3da5a06e	0.0808724
238	0xbc6a25ed	-0.014291269
239	0xbd9fb450	-0.07798064
240	0x3dc844a4	0.09778717
241	0xbd9d3204	-0.07675555
242	0x3d616ff5	0.05503841
243	0xbd03daad	-0.032190967
244	0x3da4eb41	0.080526836
245	0xbd1093dd	-0.035297263
246	0xbd513d34	-0.05108376
247	0x3ce70872	0.02820227
248	0x3bd0669e	0.006359889
249	0x3db7c6e1	0.0897348
250	0x3ac8f51f	0.0015331841
251	0x3b09c9c4	0.0021024803
252	0x3d5b5800	0.05355072
253	0x3e072654	0.13198215
254	0x3d1662ac	0.036715195
255	0x3d478c3b	0.04871772

bias f4 [32]
0	0x3d8d7b5f	0.06908297
1	0x3d9d1445	0.07669882
2	0xbd846b98	-0.064658344
3	0xbd5b5b17	-0.053553667
4	0x3d879fcb	0.06622275
5	0x3dfed770	0.12443435
6	0x3dd865e1	0.10566307
7	0x3d6c10e6	0.057633303
8	0x3c0edb2c	0.008719247
9	0x3dc07c4c	0.09398708
10	0xbde77a4c	-0.11302623
11	0x3bf70eb8	0.0075395964
12	0x3c4bb8f4	0.012434233
13	0x3e96c18f	0.29444548
14	0xbd033bfc	-0.032039627
15	0x3d3916d2	0.04518778
16	0xbe825196	-0.2545287
17	0x3d83bf4e	0.06432973
18	0xbdeaef7a	-0.11471458
19	0x3dcaa502	0.09894754
20	0xbddd3d42	-0.108026996
21	0x3d0a31ed	0.03373902
22	0xbda6edcf	-0.08150827
23	0xbcd0f61b	-0.025507977
24	0x3e9a3f96	0.30126637
25	0x3d06f5d9	0.032949302
26	0x3e3bf1d4	0.18353969
27	0xbd937a10	-0.07201016
28	0xbde1d393	-0.11026683
29	0xbc39e129	-0.011345186
30	0xbd87f381	-0.066382416
31	0x3d535274	0.051592305

weight f4 [16, 32]
0	0x3e8ece0f	0.27891585
1	0xbd354db0	-0.04426354
2	0x3dc64fc9	0.096831866
3	0xbc0b03e1	-0.0084848115
4	0xbd08af7a	-0.033370472
5	0xbd948c59	-0.07253332
6	0xbd4a13bf	-0.049335238
7	0x3e2de49c	0.16981739
8	0xbd2d3a46	-0.042291902
9	0x3e671324	0.22565895
10	0xbd41fdd4	-0.04736121
11	0xbe4a8f2f	-0.19781183
12	0x3e4902df	0.19630001
13	0x3eb15a2c	0.34639108
14	0x3e469f36	0.19396672
15	0xbe1a9ed1	-0.15099646
16	0xbea423cb	-0.32058558
17	0x3c1fb07f	0.00974667
18	0xbe3b2a19	-0.18277778
19	0x3e18ea35	0.14933093
20	0xbe03da86	-0.12876329
21	0xbe12f9ed	-0.14353152
22	0xbe417069	-0.18890537
23	0xbcc3a26b	-0.023881158
24	0x3e50d6f3	0.20394497
25	0x3d905335	0.070471205
26	0x3e503cda	0.20335713
27	0x3dada0ac	0.08477911
28	0x3ddb8919	0.10719509
29	0xbdcd2009	-0.10015876
30	0x3e12ef24	0.14349037
31	0xbd0a35af	-0.033742603
32	0x3d82b30d	0.063818075
33	0x3e04249e	0.12904593
34	0x3e0c52f0	0.13703513
35	0x3d8aa24a	0.067692354
36	0x3dc290f0	0.09500301
37	0xbce5dea4	-0.028060265
38	0x3dca7f13	0.09887519
39	0x3da97e33	0.08276024
40	0x3cb74ade	0.022374567
41	0xbd44d457	-0.048054066
42	0xbe14e678	-0.14541042
43	0x3e07da8c	0.13266963
44	0xbe26f539	-0.16304483
45	0x3e6abb60	0.2292304
46	0xbc4303f6	-0.0119028
47	0x3d9b871f	0.07594132
48	0x3d753a73	0.059870195
49	0x3d37e295	0.04489382
50	0xbe1c2eb5	-0.15252192
51	0xbe2e6fb9	-0.17034806
52	0x3d951ad5	0.072805084
53	0xbe1abaf6	-0.15110382
54	0xbcab6fb6	-0.020927291
55	0xbd9f10a8	-0.07766849
56	0x3d18409e	0.037171
57	0xbe34db86	-0.17661867
58	0x3ceb8bec	0.028753243
59	0xbdb3bfae	-0.087767944
60	0xbd7aa352	-0.06119091
61	0xbdda9a87	-0.10674005
62	0xbe19dacf	-0.15024875
63	0xbdf50489	-0.11963756
64	0xbd54b4b6	-0.051930152
65	0x3c8b0ff8	0.016975388
66	0xbe1bbb94	-0.15208274
67	0x3bad5e5c	0.0052907895
68	0xbd8daa8a	-0.06917293
69	0xbd328ce0	-0.04359138
70	0xbd237998	-0.039910883
71	0xbe2b93ea	-0.16755643
72	0x3ca461e2	0.020066205
73	0xbcbf48b0	-0.02335009
74	0xbdef4d06	-0.11684613
75	0x3b997d99	0.004684162
76	0xbca35541	-0.019938113
77	0x3cbc84a0	0.02301246
78	0xbddc5579	-0.1075849
79	0x3e4de59c	0.2010712
80	0xbd1d578c	-0.03841357
81	0x3e25fa7b	0.16208832
82	0xbdfd62af	-0.12372338
83	0x3aba8de2	0.0014232958
84	0xbe1cfeca	-0.1533157
85	0x3e14dad0	0.14536595
86	0xbe194510	-0.14967752
87	0x3e18b104	0.14911276
88	0xbe1e3f1c	-0.15453762
89	0xbde30c56	-0.11086337
90	0x3dd9e7c8	0.10639912
91	0xbcf0511f	-0.029335557
92	0xbd787c62	-0.060665496
93	0xbdb373f8	-0.08762354
94	0x3d92c3aa	0.07166226
95	0x3de3a596	0.111155674
96	0xbe2210a0	-0.15826654
97	0x3e21b626	0.1579214
98	0x3d29c337	0.041445937
99	0x3c91d639	0.017802345
100	0xbe0ebdb8	-0.1393956
101	0x3dc72086	0.09723
102	0xbda5b8a7	-0.0809186
103	0xbc8aaaac	-0.016927086
104	0xbd946c79	-0.07247252
105	0xbe102364	-0.14076
106	0x3d3fc9b0	0.046823204
107	0x3bfb4d1f	0.0076691057
108	0x3e05b409	0.13056959
109	0xbe04b244	-0.12958628
110	0x3dbf430a	0.093389586
111	0xbdd31992	-0.103076115
112	0xbe41de08	-0.18932354
113	0x3dab7dc7	0.083735995
114	0x3e1408b4	0.14456445
115	0xbd4ccdec	-0.05000107
116	0x3d6b71f1	0.05748171
117	0x3e1a20b3	0.15051536
118	0x3cb8b458	0.022546932
119	0x3c1b6ca0	0.009486347
120	0x3c3e8b0e	0.011629833
121	0x3e1d8dfb	0.15386193
122	0xbd06596e	-0.03280013
123	0xbdd9c2de	-0.10632871
124	0x3c8a9472	0.016916487
125	0x3da2cc23	0.07949092
126	0xbe328f7b	-0.17437546
127	0xbe2bf5ca	-0.1679298
128	0x3d6eb079	0.058273766
129	0xbdf2556c	-0.11832699
130	0x3de7c3b6	0.11316626
131	0x3d594501	0.053044323
132	0xbdcf4ffb	-0.10122677
133	0x3d164c2d	0.03669374
134	0x3d71b780	0.05901289
135	0x3e489121	0.19586612
136	0xbe6436d6	-0.22286543
137	0x3dc255b3	0.09489002
138	0xbe1470e4	-0.1449619
139	0xbe23624c	-0.15955466
140	0xbd962350	-0.07330954
141	0x3e8110a9	0.25208023
142	0xbdfa6940	-0.12227106
143	0xbd8d8504	-0.06910136
144	0xbe9c264a	-0.30497962
145	0x3ddb9697	0.10722082
146	0xbd8c933f	-0.068640225
147	0xbdb17d5e	-0.0866649
148	0x3d916dab	0.07100996
149	0xbe59b147	-0.21259032
150	0x3d906980	0.070513725
151	0xbe185826	-0.14877376
152	0x3ea7b5e3	0.32755956
153	0x3e1b03de	0.15138194
154	0x3e6d1c52	0.23155335
155	0x3e034e16	0.12822756
156	0x3d03de7f	0.03219461
157	0xbd1cb3e4	-0.038257495
158	0xbdde48a3	-0.10853698
159	0xbd91323f	-0.07089662
160	0x3e0120ff	0.12610243
161	0xbcf7fe04	-0.030272491
162	0x3d9b9a38	0.07597774
163	0xbdefa8a6	-0.11702089
164	0xbddb8172	-0.10718049
165	0x3e31c2b2	0.17359427
166	0xbda35aaf	-0.07976281
167	0x3e2972ef	0.1654775
168	0xbd0a1e22	-0.033720143
169	0x3d912406	0.07086949
170	0x3e29e940	0.16592884
171	0xbe00ea34	-0.12589341
172	0x3de224d2	0.11042179
173	0x3ddb598d	0.1071044
174	0x3e271022	0.16314748
175	0xbdc5361b	-0.096294604
176	0xbde40953	-0.11134591
177	0x3e37f0f4	0.1796301
178	0x3dab0c74	0.083519846
179	0xbc0b63f5	-0.008507718
180	0x3d7dc242	0.061952837
181	0xbdc01526	-0.09379034
182	0x3d3be7ba	0.04587529
183	0xbdfca0a0	-0.12335324
184	0x3da7258d	0.08161459
185	0xbe01d7b2	-0.12679937
186	0x3e5ba67c	0.21450227
187	0xbd0c5cda	-0.034268238
188	0xbdeb07fe	-0.11476134
189	0xbdae21e1	-0.08502556
190	0x3d685ff2	0.056732126
191	0xbda8adfc	-0.0823631
192	0xbeb28000	-0.3486328
193	0x3e9aa2cc	0.3020233
194	0xbe5acd45	-0.21367367
195	0xbe19544d	-0.14973564
196	0x3e068cc3	0.13139634
197	0x3dcdd2e0	0.10049987
198	0xbd4bc28d	-0.049746085
199	0x3e301add	0.17197748
200	0x3f2dc2c6	0.67875326
201	0x3d83775e	0.06419252
202	0xbe297919	-0.16550101
203	0xbd6e7935	-0.05822106
204	0x3e5bbb23	0.21458106
205	0xbe811608	-0.2521212
206	0xbe1e40f0	-0.15454459
207	0x3f19e7b1	0.6011916
208	0x3f03c378	0.51470137
209	0xbe303ea9	-0.17211403
210	0x3e5d3863	0.21603541
211	0xbc42430a	-0.011856804
212	0x3ebb250e	0.36551708
213	0x3ef052ed	0.46938267
214	0x3d7e9ca1	0.06216109
215	0x3dd5a6ce	0.10432206
216	0x3bf4eec0	0.0074747503
217	0x3d21e371	0.039523546
218	0xbd98dab7	-0.074635915
219	0xbcd46eb6	-0.025931697
220	0x3e58e8da	0.21182576
221	0x3e98bc50	0.2983117
222	0xbe58e7ab	-0.21182124
223	0xbd621834	-0.055198863
224	0xbda4790e	-0.08030902
225	0xbbf26c52	-0.0073981667
226	0xbdd217c8	-0.10258442
227	0x3d46fc78	0.048580617
228	0xbd49dec3	-0.049284708
229	0x3c04ebb9	0.008112841
230	0x3e049583	0.12947659
231	0xbd2e9938	-0.04262659
232	0xbd196c88	-0.03745702
233	0xbd7a8a9e	-0.061167352
234	0x3bf6a82e	0.007527373
235	0x3d7bdfb4	0.061492637
236	0x3c8a96ff	0.016917704
237	0x3e10fcc0	0.14158916
238	0x3de51753	0.11186089
239	0xbddae947	-0.10689025
240	0x3dbd3f2e	0.09240566
241	0xbda4be97	-0.08044165
242	0xbddd5d0d	-0.10808764
243	0x3dcbf965	0.099596776
244	0xbddc2828	-0.10749847
245	0x3cd971fa	0.026543606
246	0xbe2a1a29	-0.16611542
247	0xbe2f67ea	-0.17129484
248	0xbd95b1c9	-0.073093005
249	0x3bcc45bd	0.0062338994
250	0x3e6d3375	0.2316416
251	0xbdda474e	-0.106581315
252	0xbd1dda40	-0.038538218
253	0x3e02259c	0.1270966
254	0x3dc54183	0.09631636
255	0xbbe2e6db	-0.006924493

bias f4 [16]
0	0x3e231376	0.15925393
1	0x3a8c6700	0.0010711849
2	0x3d1dd08c	0.038528964
3	0xbdb7159e	-0.0893967
4	0x3ea1eba6	0.31625098
5	0x3daa4ff8	0.08316034
6	0x3e81b5c0	0.25333977
7	0x3e65adb0	0.22429538
8	0x3ed63e31	0.41844323
9	0xbc843d0c	-0.01614239
10	0xbe19ceda	-0.15020314
11	0x3cc15892	0.023601804
12	0x3edefd3b	0.43552575
13	0x3e43dcaf	0.19127153
14	0x3e09a9b2	0.1344364
15	0x3ed824a4	0.42215455

weight f4 [1, 16]
0	0xbf3e8421	-0.7442036
1	0xbe545040	-0.20733738
2	0x3dc1f1e4	0.09469965
3	0xbd93fdc2	-0.07226135
4	0xbf274ae6	-0.6534866
5	0xbe7b35d7	-0.24532257
6	0x3fb05a26	1.3777511
7	0xbe3efb13	-0.18650465
8	0xbf95ee13	-1.171328
9	0x3d8f5d80	0.070002556
10	0xbe425eba	-0.18981448
11	0xbdc79ca6	-0.09746675
12	0xbf7dbfdb	-0.99120873
13	0xbed8ba0b	-0.4232944
14	0x3cba3277	0.022729142
15	0xbf23adc7	-0.6393704
