Fall 2022/CMSC 352 – Machine Learning/Assignment 4/NeuralNetwork4.pt (torch, 25935 bytes, 19 tensors)

weight f4 [64, 17]
00000000: e2f8 91be 805e a4bd 3f87 76bb 0e37 81be
00000010: ae1a 723e b385 e9bd 8964 643d bece 463a
00000020: 3e13 7dbe 24f3 bf3d d42a fe3b 09f3 bdbd
00000030: f505 dfbd af15 a2bd 56ab 4c3c 381d 5a3e
00000040: 66b4 95bd 5542 013e 9a00 233d 58e6 193e
00000050: 521d 23be 59ee 2ebe 1373 2c3d aa6b 0fbe
00000060: 6e0e bbbc be35 b93e 4e89 133e 72da e7bd
00000070: 3db6 143d d3ef 1f3e ca86 cf3c 936b a0bd
00000080: d396 2abe 49ca 07be 89f8 45be ce63 65be
00000090: d6ca 2dbe 82e5 353d 339e 713e 5557 a43a
000000a0: 539e c0bd 3773 143e 9909 20be c7ff debd
000000b0: 4fc1 23be 1ce6 48be 4055 22be 2f53 4e3e
000000c0: 54e3 58be f75a 4fbe 3f80 98bd 2002 b5bc
000000d0: a742 6dbe d8c3 49be 896e b6bd 7a6a 8a3e
000000e0: 1888 a3bd fe2f b2bd f514 8b3d 04d6 8a3e
000000f0: 3b56 59be 24bc 1abd f614 293e 408a 6bbe
00000100: 14b5 c8bd 9da1 82be dcff 7bbd 713e 0abe
00000110: 9ed9 043d 1706 18be 6eb6 3fbe 9e1f 1fbe
00000120: 914b 58ba 82b1 0a3e feaa 1ebe 6405 94bd
00000130: 5a60 5a3e 6676 6d3e 42d6 50be 2e86 30bd
00000140: 0028 8f3c bc74 a4bd 13f8 cc3d 5715 213e
00000150: 9c74 d4bd afe1 e6bd 348e ed3d 7e25 133e
00000160: ee43 0ebe edc2 71be 9bc7 10be ef91 09bd
00000170: 7792 5fbe 2f4d 02be 1744 3dbd 8f9f 35be
00000180: 27c6 b83d d430 793c 6489 433d 8871 debd
00000190: 7b86 25be aadd 21be 0f93 b8bd 5a1b bcbc
000001a0: 2372 16be 1447 11be e23a 633e 9c84 ddbd
000001b0: 601a 313c adee 20bd 79be 613d 614c 823c
000001c0: 07e0 693e 1710 4b3e 9da4 be3d 7507 5ebd
000001d0: e93e df3d 3ce9 563e 438a afbd bc74 58be
000001e0: 73b4 b83d ec29 053e 46c2 1a3e 5e5f 5a3e
000001f0: 70c7 b83d 7ac8 70bc 25dc 213e 4eb1 6bbd
00000200: 9989 15be 05e4 413e 1617 5b3e 79ac ecba
00000210: 04eb a3bd c874 d9bc 56a3 1dbe f611 083d
00000220: 91e4 89be 7f5d f13d 37be 37be da89 443e
00000230: 6e36 1b3e 3811 c2bd 8c61 f63d d89d 04bd
00000240: 0d52 393a 407b 033e 29b8 01be 9877 73bd
00000250: 54be 613e 4b88 58be 9d13 ef3d 5250 d4bb
00000260: 930c 0d3e a231 8a3d 06a2 923d 3ea4 583e
00000270: 2c44 a63d 4976 89bd 0d05 343e 0c32 aebd
00000280: d664 25be 2fa6 473e 8497 fdbd b232 573e
00000290: 8436 fa3c d702 5d3c 8a36 f7bd 8fbe 58be
000002a0: 4f61 55be b116 c63d 9cd9 ac3c 0155 49be
000002b0: 65d6 21be 4908 1e3e 3030 ef3c 949e ddbd
000002c0: ee02 8dbd 69c3 c7bc c036 8e3d b539 7b3e
000002d0: 1ead 2fbe 71a1 bfbd c203 6a3e 6715 913d
000002e0: 5fdb 86be 177d b73d e980 a2bd eb8c 4fbe
000002f0: 6045 ad3c 5ad6 ca3d f118 f33d bb6f c13a
00000300: 7441 fbbd 5b82 403d f67b 44be 076d 1cbe
00000310: ba08 353e b627 853c 2bc3 4bbe 685e 02be
00000320: 7aba 54be 7238 3cbe 69dd 943d 3304 ddbd
00000330: e206 4fbe 0a56 4cbe 70a5 ed3d 7468 6f3e
00000340: 0f84 afbe 7f94 23be f5f3 59be 6eed fdbd
00000350: dbab ecbb 4a36 9f3e af6a 903e 7b4e 57be
00000360: 0185 80bd 26cd a2bd a717 6abe b2e4 2cbd
00000370: e4cd a5bc 5bb7 d53d b182 ee3d 5f17 72be
00000380: 7ecd b0bd aef0 e13d ceac 61bd 1cec e63d
00000390: 7a55 61be 2a0c 91ba 425b 5bbd 9109 14bc
000003a0: 7bbc 333e 3603 213e d99b 573e 1319 1c3e
000003b0: 5bd0 31ba 559a d03c 7a97 463e 8f20 0d3e
000003c0: 9c13 e7bd 5acd aa3d 014a 003e 1376 4dbe
000003d0: d72e 1dbd dbd3 71bd 5a0b a9bd 378d 00be
000003e0: d4d5 9ebd b448 493e 2de0 8b3d 47c6 8abd
000003f0: 0a9a e6bd df14 353e 68ff 343e 706f 2d3e
-0.28510195 -0.08025837 -0.0037617234 -0.25237316 0.2364299 -0.11402454 0.05575994 0.00075839076
-0.24714372 0.09372547 0.0077565704 -0.09274871 -0.10889808 -0.07914292 0.012492022 0.21300209
-0.07309799 0.1262296 0.039795496 0.15029275 -0.15929154 -0.1708311 0.04210193 -0.14005914
-0.022834029 0.36173815 0.14407846 -0.11320962 0.03630661 0.1561883 0.025332827 -0.07833018
-0.16659097 -0.1326076 -0.1933309 -0.22401354 -0.16971907 0.04440833 0.23595504 0.0012538234
-0.09405198 0.14497076 -0.15628661 -0.108886294 -0.1599171 -0.1961903 -0.15852833 0.2014892
-0.21180469 -0.20249544 -0.07446336 -0.02209574 -0.23169957 -0.19703615 -0.08907802 0.2703436
-0.07984942 -0.0870056 0.067911066 0.27116406 -0.212243 -0.03777708 0.16511902 -0.23001957
-0.09800163 -0.25513926 -0.061523303 -0.13500382 0.0324341 -0.14846073 -0.18721935 -0.15539405
-0.00082510064 0.13544276 -0.15494916 -0.07227591 0.21325818 0.23189697 -0.20394233 -0.043096714
0.017475128 -0.08030078 0.10008254 0.15730797 -0.10373804 -0.112735145 0.11599389 0.14369771
-0.138931 -0.23609515 -0.14138643 -0.03358644 -0.21833216 -0.12724756 -0.046207514 -0.17736648
0.090221696 0.015209395 0.047738448 -0.10861498 -0.16164581 -0.15807214 -0.09012424 -0.022962261
-0.14691977 -0.1418727 0.22190431 -0.10816309 0.010809511 -0.03929012 0.05511329 0.01590556
0.22839366 0.19830357 0.09308741 -0.05420633 0.10900671 0.2098741 -0.08571293 -0.2113828
0.09018793 0.13004273 0.15113172 0.21325442 0.09022415 -0.014696235 0.15806635 -0.057542138
-0.1460327 0.18934639 0.21395525 -0.0018056772 -0.0800381 -0.026544943 -0.15394339 0.033220254
-0.26932195 0.11785411 -0.17943655 0.19193211 0.15157482 -0.094759405 0.12030324 -0.032377094
0.00070694165 0.12839985 -0.12667908 -0.059440225 0.2204526 -0.21145742 0.11673663 -0.0064793015
0.13774328 0.06747748 0.0715981 0.21156403 0.081184715 -0.06712014 0.17580052 -0.085056394
-0.16151747 0.19496988 -0.12382415 0.21015432 0.030543573 0.013489447 -0.120709494 -0.21166442
-0.20837902 0.09672297 0.021099858 -0.19661333 -0.15804441 0.15432848 0.029197782 -0.10821262
-0.068853244 -0.024385171 0.069440365 0.24533732 -0.17155883 -0.093569644 0.22852996 0.0708416
-0.26339242 0.08959406 -0.07934744 -0.202686 0.021151245 0.099041656 0.118699916 0.001475803
-0.122683436 0.046999317 -0.19187912 -0.15275966 0.1767911 0.016254287 -0.1989867 -0.12731326
-0.2077426 -0.18380907 0.07268793 -0.107918166 -0.2021747 -0.19954696 0.1160382 0.2337969
-0.3428044 -0.15974616 -0.21284468 -0.12398802 -0.007222635 0.31096107 0.28206393 -0.21026032
-0.062753685 -0.07949285 -0.22860585 -0.04221029 -0.020239778 0.10435363 0.11646021 -0.23641728
-0.086329445 0.11032234 -0.05509644 0.11275503 -0.22005263 -0.0011066247 -0.053553827 -0.009035484
0.17552368 0.15723881 0.21055545 0.1524394 -0.00067830615 0.025464216 0.19393721 0.13781951
-0.11283037 0.08339949 0.1252823 -0.20064573 -0.038374748 -0.05903993 -0.08254118 -0.12553869
-0.07755628 0.1965664 0.068298675 -0.067761 -0.11259849 0.17683743 0.17675555 0.16937041

bias f4 [64]
00000000: 9759 46be d3fe 463e 4e19 473e f715 9f3d
00000010: 62bf 81be a01c 133e 378f 72be 4971 36be
00000020: 6e38 5e3e 8b46 85bd cb3a bf3d 45e5 6bbe
00000030: 62f7 0c3e 2140 333d d8d1 3c3d 750b c1bc
00000040: 8c66 6abe 1060 513e 951b 0dbd 1f3c b33d
00000050: 6599 613e b949 b23d 9e1c bfbd aa85 0e3e
00000060: d0bb e7bc e932 cc3d 6089 533e 8a74 5abe
00000070: a7f1 c43d 108e f13a 1bd2 813e ca92 113e
00000080: 728e 853e 6c84 3c39 ec14 f4bd 8ee7 e6bc
00000090: b566 503c 06ed 6cbe b199 3dbe 4b24 53be
000000a0: 545d dbbd 19b2 383d 682b 4e3d e2d6 8fbd
000000b0: e236 29bd 3224 86be 7342 5cbe a6f7 e1bd
000000c0: 2801 5d3e 1a36 593e 3a51 5b3e a454 58be
000000d0: 8226 143e 96f4 84be 810b 69be 8519 653e
000000e0: de6d fe3c dd43 da3d 1a4d febc 4af4 fc3d
000000f0: 4385 023e 1afc cfbd 0da8 7d3e 4b42 1cbe
-0.19370113 0.19433145 0.19443247 0.07767861 -0.25341326 0.14366388 -0.23687445 -0.17816652
0.21701214 -0.06507596 0.09337386 -0.23036678 0.13766244 0.04376233 0.04609856 -0.023565033
-0.22890681 0.20446801 -0.034450132 0.087517016 0.22031172 0.08705468 -0.0933163 0.13918176
-0.028287798 0.09970648 0.20657873 -0.21333519 0.09616404 0.0018429179 0.2535561 0.14216152
0.2608524 0.00017978408 -0.11918053 -0.028186586 0.0127198 -0.23137292 -0.1851566 -0.20619313
-0.1071116 0.045091722 0.050334364 -0.070234075 -0.041312106 -0.2619949 -0.21509723 -0.11033563
0.21582472 0.21212044 0.21417704 -0.21126038 0.14467815 -0.25967854 -0.22758295 0.22373016
0.031058248 0.10657475 -0.031042624 0.12351282 0.12746148 -0.101555064 0.24771138 -0.15259664

weight f4 [64]
00000000: fbd7 823f 6580 803f 12bd 803f 2f37 883f
00000010: 0e25 803f 6eb2 823f 1129 803f 206f 7c3f
00000020: edb8 813f e965 803f 0f5a 843f 6dcb 7d3f
00000030: e298 843f c9a4 803f c394 7d3f 81c0 7d3f
00000040: 156d 7d3f 37d4 7e3f 311e 7f3f c98b 803f
00000050: 8690 853f 8668 813f 14b2 7e3f 8cdd 7d3f
00000060: 416c 813f 1962 813f c29e 803f fb2d 823f
00000070: 7fdb 813f fbd4 833f 1d22 7e3f e55c 803f
00000080: 8058 833f 0c29 803f 3941 823f 1f8c 7b3f
00000090: e052 833f 0848 853f 39b7 823f cea4 863f
000000a0: 8b75 803f a587 813f 1cba 853f 8599 823f
000000b0: e2d4 843f efd9 833f 95b4 7f3f 10a3 833f
000000c0: 1802 823f 24a5 833f 279c 833f 1ffe 833f
000000d0: d096 7f3f 250c 813f 12d0 803f 4c0d 813f
000000e0: 1033 853f c2b2 7d3f 1977 873f 8038 833f
000000f0: 2fac 813f 9eea 833f b531 853f ddf6 843f
1.0222162 1.0039183 1.00577 1.0641841 1.0011308 1.0210702 1.0012532 0.98607063
1.013456 1.00311 1.0339984 0.9913853 1.0359156 1.0050288 0.9905512 0.9912186
0.9899457 0.99542564 0.99655443 1.0042659 1.043473 1.0110023 0.99490476 0.9916618
1.0111161 1.0108062 1.0048449 1.0170282 1.014511 1.0299371 0.992708 1.0028349
1.0261383 1.0012527 1.0176154 0.9826068 1.0259666 1.0412607 1.0212165 1.0519044
1.0035871 1.011952 1.0447421 1.02031 1.0377467 1.0300883 0.9988492 1.0284138
1.0156889 1.0284772 1.0282029 1.0311927 0.99839497 1.0081831 1.0063498 1.0082183
1.0406208 0.9910089 1.0583221 1.0251617 1.0130671 1.0305974 1.0405794 1.0387837

bias f4 [64]
00000000: f687 313b 2133 6abb b846 48bc 62e1 f2bb
00000010: 2729 973b 51d3 f83a c6ad eebc 4b49 383c
00000020: 9bed bc3b c0fc 023d 2112 84ba a73e 8e3b
00000030: 4ce3 903c 9da9 bcbc 3f36 6bbb 5509 3439
00000040: 92da 3b3c 39f3 4dbb 18ee f734 fd17 acba
00000050: 7027 d3bb 45c1 e63b a160 d13a ea6a 06bc
00000060: 094e 7e3d 895e 64bc 4f91 94bb c5df 05bd
00000070: cb66 b33c acd3 ad3b 1894 11bc 8e96 a73c
00000080: 1791 ab3c ef86 a53c 6402 3e3b 3973 be3c
00000090: 405e cfbc 42d3 993c 3ba2 8fbc 76c9 b33c
000000a0: 300a 9fbc f7cf 5f39 ffe5 083c 831a c9bc
000000b0: b9e3 b23b 77c3 663a 87de f93b 40ae 1dbc
000000c0: 27b1 4a3c 2cdc 043d 9619 293a 2bf0 b5ba
000000d0: 61d7 b23b 4fd9 013c 864a 85bc 662f 39bc
000000e0: b0e9 0bbd 1f7e 99bc 9ca4 913c e1c7 343c
000000f0: 34ee a03c d369 523c a248 8e3c e97c 2bbc
0.0027089096 -0.0035736042 -0.012223892 -0.0074121216 0.00461306 0.0018983876 -0.029135596 0.011247943
0.0057656295 0.031979322 -0.0010076204 0.004340965 0.017686509 -0.023030097 -0.0035890487 0.00017169614
0.011465685 -0.003142549 4.618057e-07 -0.0013129708 -0.0064439103 0.0070420825 0.0015974232 -0.008204201
0.06208614 -0.013938555 -0.0045339237 -0.032684106 0.021899601 0.0053047743 -0.008885406 0.020457532
0.020943208 0.020205943 0.0028993124 0.023248302 -0.025313497 0.018777493 -0.017533412 0.02194665
-0.019414037 0.0002134441 0.008355617 -0.024548775 0.0054592756 0.000880293 0.0076254043 -0.009624064
0.012371338 0.032436535 0.0006450651 -0.001388078 0.005457804 0.007925346 -0.016270887 -0.011302805
-0.03415841 -0.018736897 0.017778687 0.011033983 0.019644834 0.012842613 0.017368618 -0.010466793

running_mean f4 [64]
00000000: d65a 24be 7e95 303e 1166 c03d 32cf 923d
00000010: 9f5b 5dbe 9f20 f63d 91e6 45be d92d 12be
00000020: f0db 493e 14a1 02bd 5d4f db3d fe61 32be
00000030: e5af cf3d ad2e b43c 8faf 8c3d 7f4a aabc
00000040: 3408 3cbe d35d 113e dbb0 f4bc f781 2c3d
00000050: f837 433e 4066 9e3d a66f 86bd c5ba ee3d
00000060: 82ca 37bd b47e d73d 0aae 133e 8e57 16be
00000070: 52e8 b03d 91a0 1abc f403 433e 6063 f03d
00000080: 18c6 483e 57e6 843c 5154 ddbd 2e71 59bb
00000090: 50be 003d 5c88 38be 390a 13be a2cd 25be
000000a0: ee55 90bd 027d 4c3d 7a57 823d 37b6 b8bc
000000b0: 4cff e6bc 6654 64be c591 03be 9d1e 6fbd
000000c0: 01e8 393e de36 203e 947a 293e c8b3 0abe
000000d0: 84d9 b33d cc7a 70be d91c 0dbe 1092 303e
000000e0: 46d8 043d b524 af3d 3644 f9bc 194a a83d
000000f0: 4e03 063e a67b a3bd cd9c 533e 702e 0abe
-0.16050276 0.17244527 0.093944676 0.071684256 -0.21616982 0.12017941 -0.19326235 -0.14275302
0.19712806 -0.031891897 0.10708497 -0.17420194 0.10140971 0.021994913 0.06869423 -0.020787476
-0.18362504 0.14195947 -0.029869488 0.04211613 0.19064319 0.077343464 -0.06564264 0.11656717
-0.04487086 0.105222136 0.1442186 -0.14681837 0.086380616 -0.009437696 0.19044477 0.11737704
0.19606817 0.016223116 -0.10807098 -0.0033179033 0.031431496 -0.18020767 -0.14359368 -0.16191724
-0.0704764 0.049923904 0.06364341 -0.022547824 -0.028197907 -0.2229782 -0.12848575 -0.058378804
0.18154909 0.1564593 0.16550666 -0.13545144 0.08781722 -0.23484343 -0.13780536 0.17243218
0.032432817 0.08551923 -0.030428033 0.08217258 0.13087198 -0.079825684 0.20665284 -0.13494277

running_var f4 [64]
00000000: f57f 703e f2d8 c33d 259b a63e 6d65 853e
00000010: ea58 233e fdb0 683e 1fa8 e73d d6f9 813e
00000020: 18e9 243e 68dd 273e 0062 ea3d 573e 323e
00000030: 111d a13e 312f 243e 9366 733e 88c8 3b3e
00000040: 8b24 593e 5742 8e3e 5f92 743e 0a44 2b3e
00000050: 381c 193e 4a25 2c3e f7d8 833e d457 403e
00000060: 654c 913e e86d 863e 0ae9 513e d2bb 703e
00000070: b3a1 033e b36c b43d 5241 343e 7742 283e
00000080: 57f4 973e 3036 603e d831 393e 8c14 083e
00000090: cdd3 6b3e 2c92 703e 8ba4 243e ce13 a53e
000000a0: bc43 803e 9407 233e 84dd 8b3e 9134 663e
000000b0: ac93 323e fc00 733e 5565 ab3e 8465 853e
000000c0: b14e 5d3e e1eb 493e b5a4 803e 458e c83e
000000d0: 7f9b 1c3e 79d9 273e 630c 0f3e 3959 5b3e
000000e0: 0398 a33c 0e64 583e fba2 ff3d 0cd6 0d3e
000000f0: bea0 083e 09b1 0e3e 431e cc3d 26fd 0e3e
0.23486312 0.095628634 0.3254024 0.26053944 0.15951887 0.22723766 0.113113634 0.25385922
0.16104543 0.16393054 0.11444473 0.17406593 0.31467488 0.16033627 0.23769598 0.18338215
0.21205346 0.27784988 0.23883961 0.16725174 0.14952171 0.168111 0.2575147 0.18783504
0.28378597 0.26255727 0.20499054 0.23509148 0.12854652 0.08809795 0.17603043 0.16431604
0.29678604 0.21895671 0.1808542 0.13289088 0.23030014 0.2349326 0.16078393 0.32241672
0.25051677 0.1592086 0.2731744 0.2248099 0.17439145 0.23730844 0.33475748 0.26054013
0.2161205 0.19718887 0.25125661 0.39171043 0.15293692 0.16391553 0.13969569 0.21420754
0.019969946 0.21131918 0.12482258 0.13851184 0.13342568 0.13934721 0.099667095 0.13963756

weight f4 [32, 64]
00000000: dc0f 2ebd 4239 163e 9e73 19be 34d0 4bbd
00000010: 000a e93d 9235 4aba 6d12 a7bd 552c 99bd
00000020: bd3b febc 7a89 30bc ad9c 123c 1a33 1f3d
00000030: 6909 9fbd 4e18 8cbd c34a 8cba 0116 aebc
00000040: 28c9 993d cd76 e33c d3cf 203d 759b 883d
00000050: e7f4 ab3c 7d5e 63bc 0c6e 87b7 63b9 4b3d
00000060: 39b0 a13d 85ac aebb e6a9 bf3d 0008 243d
00000070: 04a1 523a 7f01 52bd 0ec5 f0bb 16a3 f0bc
00000080: 177b 89bd fb53 f9bc e579 49bd 0d4a 9fbd
00000090: 39e3 cc3d 0d1c 3a3d 6f81 bf3c a0ea 2f3d
000000a0: 8623 19bc 5dae c33d 5d7e c4bc c629 2f3d
000000b0: 280c 38bd 70b3 d1bd ee34 b33c 6b7e f4bd
000000c0: 4342 61bc dac2 ddbd 480c 0dbe ae00 c1bd
000000d0: a014 863d 2892 663d 6f05 263d 033b f83d
000000e0: 873e c83b ab36 b9bd 940a 46bd f6f3 913d
000000f0: b4ed 5abd b7ce a13d 51d7 c03d 0350 51bc
00000100: 31ee 213e 35ed 5fbb d5dc 023e a9db 1fbd
00000110: e88a 7e3d 0ead debd dd2e af3d 8431 81bd
00000120: 5a26 423e 23ef 2abd 0786 6e3d 2405 b53d
00000130: b2be a6bd 6352 d83d 0b55 40bc d9f0 be3c
00000140: 6f04 06bd 8e83 b5bc dac4 1e3d ec3b 2fbe
00000150: 2037 3c3e 75a3 abbd c15e 823d 2170 613b
00000160: d51e a2bd 06e9 d63b 3640 083e 917a f13d
00000170: f29b 9ebc 405b 14be f587 8d3c 08ef a83c
00000180: e0bd f03c 94e4 283d 2362 f9bd ce70 bfbd
00000190: 604e 073e ec96 60bc 6c82 c93d eeaa a7bc
000001a0: 1eac b5bc 4012 bb3d b368 1e3e 3892 873d
000001b0: bb40 7fbd 9700 ba3d f632 7fbd 4778 fc3d
000001c0: 8d14 713d 06d3 05bc b0d5 693d abc5 1cbc
000001d0: 0633 2a3c 9a44 8ebd 57d4 cc3c 9c6c bdbd
000001e0: ff46 06bd 5a6a 703d 9072 ebbd b60e efbc
000001f0: 359c d2bd 066d d03d bbee 14bd c51d 9d3d
00000200: 403c 893c d542 e13d 0d71 ad3d 57fd d33d
00000210: abda 523d e051 033d 7580 9c3d 3bea b33d
00000220: 2649 bbbd 7d22 f5bd 67e3 7d3d 3d45 85bd
00000230: 9813 e8bd 338e 643d 29ec a6bd fb67 19bd
00000240: bff0 bfbd 0e6e f0bd 843e a23d cf76 443d
00000250: 2721 7cbd 214c e33c b198 91bc 0429 353b
00000260: 5aaf 22bd 3773 823d 3607 8ebd 1a87 a33d
00000270: 252d b83a c727 a63d 6249 bf3d 846f 7cbd
00000280: df3b a0bd a815 24bd 746c ca3d c0dd 823d
00000290: 8409 3ebc 8b75 73bd 4cb6 c53d 0ab2 e0bd
000002a0: 4030 a63d c8b9 aebd 4482 4e3d a51f fcbd
000002b0: 945d 5c3d 97a1 32bd 66d3 ebbd 005d 7dbd
000002c0: 829d d93d 94f5 bc3c 8fe9 9aba bd26 6e3d
000002d0: 93df 9a3a f705 a3bd c436 aabd f9c8 aa3c
000002e0: e6bc 96bd 12fd a63d cb0b a73d 3b2f febb
000002f0: 5804 18bd 4645 73bd 39e6 173d 3a5c bfbd
00000300: 3dfa 0a3e 6186 afbd 9927 75bd cb34 49be
00000310: a809 c4bd 3ca0 043e 2af5 dfbc 4e7e b13d
00000320: 35b3 5b3d cdf8 cb3d aed2 5c3c edba 5a3d
00000330: b924 23bc d76b 503d 4e7f 41bd d07c c0bb
00000340: 9b8c 0b3d 2559 0f3d be9e d93c e13a b0bd
00000350: 6c8a adbd 5855 efbd 7452 bfbd 94f1 80bd
00000360: 0b21 073e 612b 043d c43b 18bc cb74 e33d
00000370: be85 c0bc ff60 cabd a0ca d53a 6f3b b0bc
00000380: 6c73 563d d993 d0bd c178 183e 46b8 2d3d
00000390: 2b0a fdbd ca9a 903e 7a45 783c 0c28 64be
000003a0: 9220 bdbc 8053 853d a5dd e73d 1259 2a3e
000003b0: be98 633d d995 e03d 5cf5 b33b 2d53 f23d
000003c0: 264b 6ebd 4390 febb f4bc bbbc 7dc2 443e
000003d0: 0de2 05bd a988 56bc 35a5 6ebd a60e 04be
000003e0: 53b8 cdbd 46a1 e53c a8b0 3a3e 6f55 c13b
000003f0: 4588 313c 12e4 8c3d b749 53bd 93d6 933d
-0.042495593 0.1467028 -0.1498551 -0.049759105 0.113788605 -0.0007713671 -0.08157811 -0.07479159
-0.031034345 -0.0107749645 0.008948487 0.038867094 -0.07765467 -0.06840573 -0.0010703433 -0.021250727
0.07509071 0.02776661 0.039260697 0.06670276 0.020990802 -0.013877508 -1.6144499e-05 0.049737345
0.0789494 -0.0053306245 0.093585774 0.040046692 0.00080348575 -0.051270958 -0.0073477095 -0.02937464
-0.06712931 -0.030435553 -0.049188513 -0.07777796 0.10004277 0.045436908 0.023377148 0.042948365
-0.009346848 0.095547415 -0.023986036 0.042764448 -0.044933468 -0.10239303 0.021875825 -0.11938175
-0.013748708 -0.108281806 -0.13774216 -0.09423958 0.06546903 0.05629173 0.040532526 0.121206306
0.0061109695 -0.0904363 -0.04834993 0.0712661 -0.053449348 0.07900756 0.09416068 -0.012775424
0.15813519 -0.0034168486 0.12779553 -0.039027844 0.06214419 -0.10872851 0.0855386 -0.063082725
0.18959942 -0.041731965 0.058233287 0.08838871 -0.08141841 0.10562589 -0.011739026 0.023308204
-0.032719072 -0.022157457 0.03876195 -0.17112702 0.18380404 -0.08380786 0.06365729 0.003439911
-0.07916037 0.0065585403 0.13305745 0.11790956 -0.01936147 -0.14487934 0.017276743 0.020621791
0.029387414 0.041233614 -0.12176921 -0.09347688 0.13213491 -0.013707858 0.09839329 -0.020467248
-0.022176798 0.0913434 0.15469627 0.06619686 -0.06231759 0.09082144 -0.06230446 0.123276286
0.05885749 -0.008167988 0.057088554 -0.009568612 0.0103881415 -0.069466785 0.025003595 -0.09249231
-0.03278255 0.058695175 -0.114964604 -0.02918182 -0.102837004 0.101770446 -0.036360484 0.07671694
0.016752362 0.10999075 0.08468828 0.10351055 0.05147807 0.032060504 0.07641689 0.0878491
-0.09144811 -0.11969469 0.061984446 -0.06507347 -0.11331862 0.055799674 -0.08150513 -0.03745268
-0.093720905 -0.11739741 0.0792208 0.047964867 -0.061555054 0.027746262 -0.017773004 0.0027642855
-0.03971801 0.06369632 -0.06934969 0.07984753 0.001405154 0.08113056 0.093401685 -0.061629787
-0.078239195 -0.040059716 0.09883967 0.06389952 -0.011598948 -0.05943827 0.09653911 -0.10971458
0.08114672 -0.08531529 0.0504172 -0.12310723 0.05380018 -0.043611135 -0.115149304 -0.06185627
0.10625745 0.02306632 -0.0011818873 0.058142412 0.0011815898 -0.07960122 -0.08311227 0.020847784
-0.07360248 0.08153738 0.08156546 -0.007757095 -0.037113518 -0.059392236 0.03708479 -0.09343763
0.13572021 -0.085705526 -0.059852216 -0.19649045 -0.09572154 0.1295175 -0.027338583 0.08666669
0.053637702 0.09959564 0.013477964 0.053400923 -0.009957486 0.050884094 -0.047240548 -0.005874254
0.03406964 0.034997124 0.026564952 -0.0860498 -0.084736675 -0.116862 -0.093418986 -0.06296077
0.13196199 0.03226793 -0.009291593 0.11106261 -0.023501273 -0.09881782 0.0016310997 -0.021512715
0.05235617 -0.1018445 0.14889814 0.042412065 -0.12355455 0.28243095 0.015153283 -0.22280902
-0.02308682 0.06510067 0.11321572 0.1663554 0.05556559 0.10966081 0.0054918956 0.11832271
-0.058177136 -0.007768662 -0.022917248 0.19214816 -0.032686282 -0.013094106 -0.058263022 -0.12896213
-0.10044923 0.028031003 0.18231452 0.005900077 0.010835712 0.068794385 -0.05158397 0.07218661

bias f4 [32]
00000000: 256f 79bd 4024 2dbd 47b2 54bc 9271 f23c
00000010: 4c51 df3d 7bba 343d 87e5 9e3c c61c a83d
00000020: 40e6 023e 67e0 c93b 7a48 4c3d feeb e3ba
00000030: 44a1 81bc 125a b53d 1aaf ac3d 7337 19be
00000040: f66d 8fbd 6bab c4bd 48b3 eabd 248a 453d
00000050: 349b 8e3d e47c 963d 141d 70bd 43fd 473e
00000060: 71d8 66bd 7119 823d f829 fabd 0583 d73d
00000070: b069 00bd df16 9e3d d61c 01bd 4caa 16bd
-0.06089701 -0.0422709 -0.012981958 0.02959517 0.10904178 0.044123154 0.019396557 0.08208613
0.12783146 0.006160784 0.049873807 -0.0017389057 -0.015823968 0.0885507 0.084318355 -0.14962558
-0.07003395 -0.09603008 -0.114599764 0.048227444 0.069631964 0.0734804 -0.05862148 0.19530205
-0.05635876 0.06352509 -0.12215036 0.10523037 -0.03135079 0.07719206 -0.03152164 -0.0367835

weight f4 [32]
00000000: 9552 803f 3009 813f 2cca 7d3f 454b 833f
00000010: 08fa 7b3f 2d77 823f 3276 803f e445 803f
00000020: d56c 813f f49b 873f 31ee 7d3f 9a21 7c3f
00000030: 510d 7f3f e9f7 7f3f 80de 7e3f 9718 7f3f
00000040: c8cd 813f 17ae 7f3f ef24 823f a420 803f
00000050: 99c8 843f b107 823f 390e 803f 62ce 843f
00000060: eaa0 833f 37a3 813f ad73 823f 3750 7e3f
00000070: 01f9 853f 82f2 7b3f 02f3 7a3f ea1c 823f
1.0025202 1.0080929 0.99136615 1.0257345 0.9842839 1.019262 1.003607 1.0021329
1.0111338 1.0594468 0.99191576 0.9848877 0.99629694 0.99987656 0.9955826 0.99646896
1.0140924 0.99875015 1.0167521 1.0009961 1.0373718 1.0158597 1.000434 1.0375483
1.0283482 1.0127934 1.0191551 0.9934115 1.0466615 0.9841691 0.9802705 1.0165074

bias f4 [32]
00000000: 7850 bc3b 60f9 1ebd 5aea 0ebc 7720 4ebd
00000010: 9158 0ebc 07c9 333c 9e89 013c b591 e7bc
00000020: a4a2 aabb 6147 69bd de39 683c 31d1 1d3c
00000030: bc30 063c 79de 863c 330c 30bc d6e3 453d
00000040: cd19 20bc 8a2a df3a 06e5 2c3c f5cb 3fbd
00000050: c540 39bd 0249 99bc 603e d4bb 3cd0 cfbc
00000060: f352 3dbd e06a 9dbb b2b3 0abb 036c 69bc
00000070: a367 2e3d 9a83 903b 7558 3f3c 3ab8 17bc
0.0057468973 -0.03881204 -0.008722866 -0.05032393 -0.008688108 0.010973222 0.007906346 -0.02826772
-0.0052073766 -0.056952838 0.014173953 0.009632395 0.00819033 0.016463505 -0.010745096 0.048312984
-0.009771776 0.0017026227 0.01055265 -0.046825368 -0.045227785 -0.01871157 -0.0064771622 -0.025367849
-0.046221685 -0.0048040003 -0.0021164236 -0.014246943 0.042579304 0.0044102194 0.011678805 -0.009260232

running_mean f4 [32]
00000000: 0074 4cbd 079d d9bc b79e adbc 7d4d de3c
00000010: 9581 823d 1e5d 443d 65d7 b83b f58c 1d3d
00000020: d4bc 5e3d bd16 1cbd 8d6e 353d 4085 d73b
00000030: a081 15b7 03a6 1d3d f2c3 443d 1e91 d5bd
00000040: d65f 99bd 488e a3bd f5e6 99bd 8b17 f33c
00000050: dd20 453c 6b31 263d 4132 ffbc 9d2a a43d
00000060: be91 2f3d 25a6 963c 4836 e7bd 39c4 7c3d
00000070: 564a 4cbd 4a1a 623d bc32 04bd 3092 2bbc
-0.049915314 -0.026564134 -0.021193845 0.027136559 0.06372372 0.047940366 0.0056409114 0.038464505
0.0543793 -0.038107622 0.044294883 0.006577164 -8.911273e-06 0.0384884 0.04803843 -0.104280695
-0.074889824 -0.07986122 -0.07514755 0.029674312 0.012031761 0.040574472 -0.031151893 0.0801594
0.0428636 0.01838977 -0.1128965 0.06171057 -0.04987558 0.055200852 -0.032274947 -0.010471866

running_var f4 [32]
00000000: f5a0 583e a401 e03e 1a43 5e3e bd03 6a3e
00000010: 8691 9f3e 050b ab3e b8a2 6b3e 6304 df3e
00000020: 28c4 ba3e 87ed d93e 2a51 943e 09bc ad3e
00000030: 12db 6e3e 379a db3e 8a11 c83e 6e06 de3e
00000040: 4501 3f3e 0950 c03e 0c40 733e c99c aa3e
00000050: 9ae3 da3e d5ea ce3e 77f6 b53e a891 e73e
00000060: 512e 043f 3ed4 d23e 25ac 1f3e 9dd6 883e
00000070: 60c7 cf3e f944 b73e e531 c23e ed88 c13e
0.2115515 0.43751252 0.21705285 0.22852989 0.31165713 0.33406845 0.23011291 0.43558034
0.3647778 0.4256403 0.28968173 0.33932522 0.23325756 0.42891094 0.3907588 0.4336428
0.18652828 0.37561062 0.237549 0.33322743 0.4275177 0.40413538 0.355396 0.45228314
0.51633173 0.41177553 0.15593012 0.26726237 0.405818 0.3579481 0.37928692 0.3779978

weight f4 [16, 32]
00000000: cce5 763d ea8b 303e 9b10 20be 0b3b 1fbe
00000010: e982 34be 6046 f93d 836a 75bd c64b 983d
00000020: 22a0 2ebe 0b54 1ebe 6afd 0fbe 3958 2fbe
00000030: 599a f2bd d71e 5e3d a1fe 253e e51c 08bd
00000040: 211e b13d 374f 0abe b7bd 0e3e 4287 1abc
00000050: 5fb0 353e cf8f 60bd c061 db3d 577f 293e
00000060: 56c1 66bd 9863 0abe 8cad 81bd d02f 26be
00000070: c319 a23d 9fdb 1b3e 77ae 88bb 8e7b 49bc
00000080: 39e7 49be 74a9 363e 04b7 c93d c8c2 e6bd
00000090: cc1b 023e 2d35 c2bd cfe2 943d 463b c33c
000000a0: d361 13be dacf 923d 9da8 4b3d 3bc8 09be
000000b0: cb86 0dbe 4b04 86bd b9a8 26be b80e b1bd
000000c0: 6981 e23d 3d2d 143e 64d5 d1bc 2b22 083d
000000d0: 658f 09be 0a22 16be 03bf b2bc 2e64 4b3e
000000e0: be76 9a3d d70b 813d d514 09be 346a 0dbe
000000f0: 6e54 513d fb94 6bbb 98c9 1a3e 3e37 edbd
00000100: da4b 293e 9b8f d03d 6d1b 15bd cc01 893d
00000110: 40f4 b8bc 1c90 59be 06ff 0a3e 39bc 163e
00000120: 856a b73d cadd 4f3e a7ce f43d 7c0d 94bd
00000130: e70d e2bd 04b8 a7bd beac a8bd 3c09 f33d
00000140: b3bb 6c3e e586 5cbd 93da 06be 81ab de3d
00000150: 6a62 f93d e223 593e 422b 1d3d 1eaa 113e
00000160: 2e0c 303e 8608 33be c6c3 e5bd bfa6 a8bb
00000170: 995f fd3d 097b 5d3d 7c2b 06be fff0 afbd
00000180: fecb 223c 3c8a 94bc d618 ca3d 67da 1fbe
00000190: f529 7d3d aad5 acbd 1a40 01be 2b0e 2cbe
000001a0: 3799 8fbd 2359 99bc dfa9 1c3e 3df9 e9bd
000001b0: 1cb6 afbd 7eea 5e3d 9431 1c3e 2d05 c63d
000001c0: 907f f63d b00b 32be 06c6 d5bb 2adc 073e
000001d0: 1b73 2c3e 93a7 fa3d ff1f abbd f7b6 d83d
000001e0: 7284 383e e9e8 f63d b902 173e 9bd3 fbbd
000001f0: 057d 0e3e 3a8a 333e 860d 133e f60f 163e
00000200: b0ba a8bd f988 c93d 913c b9bc 3322 153e
00000210: 630c ebbd 84f6 bd3d d72a 58bd 6ffa 4b3d
00000220: f3fe f5bd 2f19 493e bc17 edbd 6273 383e
00000230: d893 02be c29f 1abd 5f4b 0cbd 488e e5bd
00000240: b24d 7abd 1ca9 3b3e c83f 1e3e 2ea2 e2bd
00000250: 757a 10bd c488 2c3e 4187 49bd a24e 073e
00000260: d910 ccbd 4b75 8dbc c9f1 02be 60cc 01be
00000270: e62e 0abe f749 c73d 2118 943b fef5 d4bb
00000280: ba6e 813d 4612 37bd c10d a03d 5c5b 47be
00000290: 7b55 f73c 392c b03d f7ef cd3d 1a62 7fbd
000002a0: 7cb8 27bd e2d5 62be b67f 58bd 8b32 ebbc
000002b0: ee7b 323c 8988 67bd a7bb 5dbd edf6 8e3d
000002c0: dd88 153d 0a01 a43d a77b 113e e5f2 e3bd
000002d0: 1335 42be c8ed 07be e18a 053e 7830 2cbc
000002e0: 6bd3 5ebe 8349 5d3d 2fdd bcbc bd59 b0bd
000002f0: 70f8 8c3e 22cd adbd cad5 cd3d 8745 d5bd
00000300: 02bb 8a3d c2bc 3dbd b97a a138 04fb 13be
00000310: 4b65 31be 3289 6bbd 61c4 01be e892 27be
00000320: 4b51 ca3d f9d8 fcbd 7487 0b3e 7553 573c
00000330: d6c2 0b3e b5f7 cc3d 6440 c7bd 19f3 103e
00000340: b752 06be 06fb 73bd 4a26 dabc 59dd aabd
00000350: 4380 0bbe 0940 44bd a116 e0bd ac1b 9d3b
00000360: 91e4 62bd 7a6a 57be 152b c2b9 53ce 093b
00000370: 174c 1d3e 6cbb 623d e58c d8bd f53a 39be
00000380: 809a a63d 3e1c 15be 7326 2fbc 0f85 bcbd
00000390: 15b3 84bd d2f3 8b3b 1e49 f7bc dda8 4b3d
000003a0: 922f e2bc d6a8 123d 65b8 5dbd ec43 0e3e
000003b0: f8e8 b1bc b822 c23b 8f89 51bd ebd7 543e
000003c0: 6358 00bd 0607 66bd aad5 20be 69a5 1cbd
000003d0: de51 95bd 1622 0b3e a8e9 41bd d3b9 47bd
000003e0: 09cb a1bd 9db3 1c3e f028 5a3e 2d53 af3c
000003f0: f617 dbbc 2c93 47bd acc8 fd3d b3b5 793d
0.060277745 0.17240873 -0.15631334 -0.15549867 -0.17628063 0.12171626 -0.05991603 0.07436328
-0.17053273 -0.15461747 -0.14061514 -0.17123498 -0.11845846 0.05422863 0.16210414 -0.03323068
0.08648325 -0.1350678 0.13939558 -0.009431662 0.17743061 -0.054824647 0.10712004 0.16552483
-0.056336723 -0.13514555 -0.063319296 -0.16229177 0.0791507 0.15220498 -0.0041711885 -0.012297524
-0.1971711 0.17838079 0.098493606 -0.1126762 0.12705916 -0.09482799 0.07269823 0.023831975
-0.14392786 0.07168551 0.04972135 -0.13455288 -0.1382095 -0.065437876 -0.162753 -0.086453855
0.11059839 0.14470382 -0.025614448 0.03323571 -0.13433607 -0.14661422 -0.021819597 0.19862434
0.075421795 0.063010864 -0.13386853 -0.13810045 0.05110591 -0.0035946954 0.15115964 -0.11582802
0.16532841 0.101836406 -0.03640311 0.06689796 -0.022577405 -0.2124638 0.13573846 0.14720239
0.08955864 0.2029945 0.11953478 -0.072291344 -0.11037808 -0.08189395 -0.08236073 0.11866996
0.23118477 -0.053839583 -0.13169317 0.108725555 0.12176974 0.21205094 0.038371332 0.14225051
0.17192146 -0.1748372 -0.112189814 -0.005146831 0.123717494 0.054072414 -0.13102525 -0.08590888
0.009936331 -0.018132322 0.09868018 -0.15610658 0.06180759 -0.08439191 -0.12622109 -0.1680228
-0.07011645 -0.018719262 0.15299176 -0.114244916 -0.085796565 0.054422848 0.15253288 0.09668956
0.12036049 -0.17387271 -0.0065238504 0.1326758 0.16840784 0.122389935 -0.08355712 0.10581773
0.18019274 0.12056143 0.14747132 -0.1229622 0.13914879 0.17533198 0.14360628 0.14654526
-0.08238733 0.098405786 -0.022611888 0.14563827 -0.11476972 0.09275535 -0.05277523 0.04979938
-0.12011518 0.19638513 -0.115767926 0.18012765 -0.1275171 -0.037750013 -0.034251567 -0.112087786
-0.061109252 0.18326229 0.15454018 -0.110660896 -0.035273034 0.16849047 -0.049201254 0.1321359
-0.09964151 -0.017267844 -0.12787546 -0.12675619 -0.13494453 0.097309045 0.004519478 -0.006499051
0.063199475 -0.04469516 0.07815123 -0.19468445 0.030192127 0.08602185 0.10055535 -0.062349416
-0.040947422 -0.22151902 -0.05285617 -0.028710624 0.010893805 -0.056526694 -0.054134037 0.06980691
0.036507476 0.08008011 0.14207326 -0.11130313 -0.18965559 -0.132743 0.1304126 -0.010509603
-0.21760337 0.054025184 -0.023054687 -0.08610866 0.27533293 -0.084863916 0.10050543 -0.10413652
0.0677395 -0.04632259 7.699937e-05 -0.14451224 -0.17323796 -0.057503887 -0.12672569 -0.16364634
0.09878787 -0.12346072 0.1362589 0.013142456 0.13648543 0.10008184 -0.097290784 0.14155234
-0.1311749 -0.059565566 -0.026629586 -0.08343 -0.13623147 -0.04791263 -0.10941816 0.0047945585
-0.05539376 -0.21036711 -0.00037034662 0.002102752 0.15361057 0.05535452 -0.105737485 -0.18088897
0.08134937 -0.14561555 -0.010690319 -0.092050664 -0.0647947 0.004271009 -0.030186232 0.049721587
-0.027610574 0.035805546 -0.05413093 0.13893098 -0.021717533 0.005924549 -0.051156577 0.20785491
-0.031334292 -0.05615904 -0.15706506 -0.038243685 -0.072910056 0.13587222 -0.047341973 -0.0487612
-0.07900054 0.15302892 0.21304679 0.021401966 -0.026744824 -0.04872434 0.12391791 0.060964298

bias f4 [16]
00000000: b495 ba3d 4267 13be 5715 d13d 1f1a 133c
00000010: 865b 393e 9376 ea3d 9ebc 873d 5053 f2bc
00000020: ecc3 95bd 8c25 4f3d cfb5 39be 70dd 283e
00000030: 04bf 4f3e fed8 a6bd 6978 cebd ac34 40bd
0.09110585 -0.14394858 0.102091484 0.008978396 0.1810132 0.114483975 0.06627773 -0.029580742
-0.0731276 0.050572917 -0.1813576 0.16490722 0.2028771 -0.08146857 -0.1008156 -0.04692523

weight f4 [16]
00000000: 8338 803f 6fd5 823f 9660 8a3f 880c 803f
00000010: a8ed 873f 958d 913f 56f9 963f 1b3a 873f
00000020: c157 943f 8ca7 7f3f ef19 8b3f e327 803f
00000030: 33a5 963f 6ada 883f 0759 813f f4c7 813f
1.0017246 1.0221385 1.0810726 1.0003824 1.0619402 1.1371332 1.1794841 1.0564607
1.158928 0.9986503 1.0867289 1.0012172 1.1769165 1.0691655 1.0105294 1.0139146

bias f4 [16]
00000000: 82c5 18bd f5bd efbd bf02 f0be 4164 e7bc
00000010: 7a3b 6fbe b499 f23e 190f d23e 577d dc3e
00000020: 54b5 f03e c065 073d fada d6be ebd0 7bbc
00000030: 8bae e03e d216 e03e f579 1a3e 954e 833d
-0.037297733 -0.11706153 -0.46877095 -0.028246047 -0.23362532 0.4738289 0.41027144 0.43064377
0.47013342 0.03305602 -0.4196394 -0.015369634 0.43883166 0.4376741 0.15085585 0.06411473

running_mean f4 [16]
00000000: 9015 a03d 2d7a c1bd fe28 0d3d 76a4 f03b
00000010: 6697 0d3e 1510 323e eb74 f53d 559f 0abc
00000020: 2427 86bc 96eb 073d c029 4bbe aadd ee3d
00000030: 6072 7f3e 3d0c e9bc b939 97bd 2f5e 7dbc
0.07816613 -0.09447131 0.03446292 0.007343824 0.13827285 0.17388947 0.11985191 -0.008460839
-0.016376086 0.033183657 -0.19840145 0.11663373 0.24945974 -0.028448218 -0.073840566 -0.01546435

running_var f4 [16]
00000000: c368 8b3e 060a c53e ab71 153f 814a 823e
00000010: 0fe6 003e c187 4e3d 75e7 893c 8312 4e3e
00000020: 5479 203d f645 053e b619 083e d219 4a3e
00000030: 37f2 7f3c 94be fc3e 81ce 373e ab28 a93e
0.27228364 0.3848421 0.5837657 0.25447467 0.1258776 0.050422434 0.016834 0.20124249
0.039178208 0.13014969 0.13291058 0.19736412 0.015621713 0.4936415 0.17949869 0.3303884

weight f4 [1, 16]
00000000: 9376 8f3d 39dd 7e3e c53a 2b3f b1da 433d
00000010: b8a9 e03e dd9c 3fbf 7eb0 43bf def9 19bf
00000020: cc02 45bf 2ed2 3cbd f6d2 1f3f 7fe1 563d
00000030: 4779 49bf aba0 1fbf 212c 5ebe 95fe 37be
0.07005038 0.24889077 0.6688655 0.047815982 0.43879485 -0.7484873 -0.7644118 -0.6014689
-0.7695739 -0.04609888 0.62431276 0.052461144 -0.7870068 -0.62354535 -0.21696521 -0.17968209
