Fall 2022/CMSC 352 – Machine Learning/Assignment 4/NeuralNetwork3.pt (torch, 19285 bytes, 7 tensors)

weight f4 [64, 17]
0	0xbe5304d6	-0.20607314
1	0x3e3bdc6e	0.18345806
2	0xbbc7c075	-0.0060959407
3	0x3d87fe32	0.06640281
4	0xbe8cf601	-0.27531436
5	0xbe6d7679	-0.23189725
6	0x3e23c059	0.15991344
7	0xb93916b6	-0.00017651435
8	0xbe4d8fe5	-0.20074423
9	0xbe145cde	-0.14488551
10	0xbdb29fc4	-0.08721879
11	0x3e137908	0.14401639
12	0xbd603e3b	-0.054746848
13	0xbd3f5378	-0.04671046
14	0x3d88ce0a	0.06679924
15	0x3c28ef9f	0.010311036
16	0x3d13651f	0.03598511
17	0xbe51c02f	-0.20483468
18	0xbd252644	-0.040319696
19	0x3dfcaa3a	0.12337156
20	0xbe9ce693	-0.30644664
21	0x3d9db876	0.07701199
22	0x3e004565	0.12526472
23	0x3e1f287a	0.15542784
24	0xbd33cb19	-0.04389486
25	0xbe0968f1	-0.13418938
26	0x3a15ed0d	0.0005719222
27	0x3e0f0f47	0.13970672
28	0xbda7d61f	-0.08195137
29	0xbd5d773e	-0.054068796
30	0xbe23c449	-0.15992846
31	0x3d97fce3	0.07421281
32	0x3dfe2305	0.12409023
33	0x3e043a2d	0.12912817
34	0xbec984a4	-0.3935901
35	0xbe42aec7	-0.19011985
36	0x3cefcf2e	0.029273596
37	0x3dc14678	0.09437269
38	0xbe6ed51d	-0.23323484
39	0xbda1f61f	-0.07908272
40	0xba4501c4	-0.0007515217
41	0xbd239ae0	-0.039942622
42	0x3d0aa905	0.033852596
43	0x3eb3d636	0.35124367
44	0x3e13b6df	0.14425229
45	0x3c2f80d6	0.010711869
46	0x3dbbcd85	0.09170059
47	0xbe73633f	-0.23768328
48	0xbcae1b33	-0.021253204
49	0x3d273c6e	0.040829115
50	0xbdd6b672	-0.104840174
51	0x3e3af1ad	0.18256254
52	0x3e8f506d	0.27991048
53	0x3e2fe562	0.17177346
54	0xbd9d4a5e	-0.076802
55	0x3bbee68d	0.0058258236
56	0x3e36a173	0.17835025
57	0x3dbddd85	0.09270767
58	0x3e24ffd4	0.16113216
59	0xbd44af0f	-0.04801851
60	0xbd6e345f	-0.058155414
61	0xbdb899e3	-0.090137266
62	0xbd9cfe72	-0.07665719
63	0xbd4ee820	-0.05051434
64	0xbd6bc6ea	-0.057562746
65	0x3d8ace8d	0.06777678
66	0x3d872f21	0.06600786
67	0x3e01507b	0.12628357
68	0xbd339033	-0.04383869
69	0x3e50a1e7	0.20374261
70	0x3e316f6b	0.17327659
71	0x3e8da7a5	0.27666965
72	0x3aae5eb0	0.0013303366
73	0x3cd2f835	0.02575312
74	0x3d4bb6e1	0.049734954
75	0xbc584d84	-0.013202075
76	0x3d82619e	0.06366275
77	0xbd81adc1	-0.06331969
78	0xbd168e82	-0.036757
79	0x3e0bdc91	0.13658358
80	0xbe11f6e7	-0.14254342
81	0x3d6cd919	0.057824228
82	0x3e7ad085	0.24493606
83	0xbd238aa1	-0.03992713
84	0x3e1f8c3f	0.15580843
85	0xbe8072c9	-0.25087574
86	0x3cb71bd6	0.02235214
87	0xbdb7cef0	-0.08975017
88	0x3e3f1a3b	0.1866235
89	0x3cd4bfc8	0.025970355
90	0xbdce38aa	-0.100694016
91	0xbddf8acf	-0.109151475
92	0x3c2fe2f8	0.010735266
93	0x3db6badb	0.089223586
94	0xbe18a4ec	-0.14906663
95	0x3d302073	0.042999696
96	0x3d51cf86	0.0512233
97	0xbe763bd4	-0.2404626
98	0xbd4a0c8a	-0.049328364
99	0x3e1aa41a	0.15101662
100	0xbd195918	-0.037438482
101	0xbe3f719a	-0.1869568
102	0x3bc804d9	0.0061040935
103	0xbb572d27	-0.003283331
104	0xbdd41206	-0.10355
105	0x3e2a2ae9	0.16617931
106	0xbe02154a	-0.12703434
107	0x3e237233	0.15961532
108	0xbd6d8ab9	-0.057993624
109	0x3d6e7690	0.05821854
110	0x3cc3fb45	0.023923526
111	0x3d1d3d08	0.038388282
112	0x3d98838a	0.07446964
113	0x3e63ae8d	0.22234555
114	0xbd86f083	-0.06588843
115	0x3e0566ff	0.13027571
116	0xbdbf611d	-0.09344695
117	0xbdf4e8f3	-0.11958494
118	0x3e7c2c0e	0.2462618
119	0x3d787d19	0.060666177
120	0x3d353d86	0.044248126
121	0x3e6a9138	0.22906959
122	0xbd651d61	-0.05593622
123	0x3d63184e	0.0554431
124	0x3d28f644	0.041250482
125	0xbe6cc586	-0.23122224
126	0x3e29b109	0.1657144
127	0xbe257267	-0.16156922
128	0x3e578121	0.21045353
129	0x3e81c71f	0.2534723
130	0x3dc2cdb0	0.09511888
131	0xbda64a93	-0.08119693
132	0xbddbfde9	-0.10741789
133	0x3dc94db7	0.09829276
134	0x3b46a15a	0.0030308575
135	0xbe44935d	-0.1919684
136	0xbe9895f6	-0.2980191
137	0xbc09faaa	-0.008421579
138	0xbcf4ec01	-0.029897692
139	0x3e1fba48	0.15598404
140	0xbdcf9240	-0.10135317
141	0x3da40bb4	0.08010045
142	0xbe1a0e90	-0.15044618
143	0x3cce40f7	0.025177462
144	0x3e28db8f	0.16490005
145	0x3bf2e23e	0.007412224
146	0x3daf84e2	0.08570267
147	0x3d6860a7	0.0567328
148	0x3e010550	0.12599683
149	0x3e094916	0.13406786
150	0x3e067594	0.1313079
151	0xbe56cd3c	-0.20976728
152	0x3e4bf3b4	0.19917184
153	0xbc793832	-0.015211152
154	0xbe65f401	-0.22456361
155	0x3e679a5c	0.22617477
156	0x3e2364da	0.1595644
157	0xbe52f535	-0.20601352
158	0x3e62a283	0.22132306
159	0x3e30ad07	0.17253505
160	0x3ddb9dd9	0.107234664
161	0x3e0c3b65	0.13694532
162	0x3e501afd	0.20322795
163	0x3e39917e	0.18121907
164	0xbe86e6a2	-0.26347834
165	0x3c6ae277	0.01433622
166	0xbe621a83	-0.22080426
167	0xbe454380	-0.1926403
168	0x3e6ff4e4	0.23433262
169	0x3da90ae1	0.08254028
170	0xbdae7b3f	-0.08519601
171	0x3dbb58ef	0.09147822
172	0x3d57fb0c	0.05272965
173	0x3e40a960	0.18814611
174	0xbd12853b	-0.03577159
175	0xbe1ce7e8	-0.1532284
176	0x3daf5bf1	0.08562458
177	0x3e520f33	0.2051361
178	0xbe2d545c	-0.16926712
179	0x3e32769d	0.1742806
180	0x3e2c25d3	0.16811304
181	0x3e162fd0	0.14666677
182	0x3d63f864	0.055656806
183	0xbe0dfb46	-0.13865384
184	0x3e03b448	0.1286174
185	0x3c1fea36	0.00976043
186	0x3bef7d0a	0.007308607
187	0xbe1478d9	-0.14499225
188	0xbea554fd	-0.32291403
189	0x3d56b1d5	0.052415688
190	0x3e2406e0	0.16018248
191	0xbe1e6fa4	-0.15472275
192	0xbd9bfd32	-0.076166525
193	0x3e5f45c7	0.21803962
194	0x3e3e48cd	0.18582459
195	0x3d859ca4	0.065240175
196	0xbd2c30a0	-0.04203856
197	0x3dcbcca3	0.09951141
198	0xbe132d8d	-0.14372845
199	0xbe0bc7f6	-0.13650498
200	0x3de04ec7	0.109525256
201	0x3e4e3f95	0.20141442
202	0x3d4f778c	0.05065112
203	0xbdd21bd1	-0.10259212
204	0xbe607358	-0.21919
205	0x3df3c15b	0.11902114
206	0xbe42fa38	-0.19040763
207	0xbe8e5655	-0.2780024
208	0xbe23a251	-0.15979888
209	0x3c76d32c	0.015064996
210	0xbdd0e26f	-0.10199439
211	0x3dc3f650	0.09568465
212	0xb998786d	-0.00029081423
213	0x3ca99cac	0.02070459
214	0xbe7c1bf2	-0.24620035
215	0xbe332c04	-0.1749726
216	0x3cc6911d	0.024239117
217	0xbe675b2e	-0.22593376
218	0xbe62fff5	-0.22167952
219	0xbbcbd2fe	-0.0062202206
220	0x3cfcc9f5	0.03085802
221	0x3c6b546f	0.014363392
222	0xbea01c88	-0.31271768
223	0xbe13f78b	-0.14449899
224	0xbe595d70	-0.2122705
225	0xbe9b22bd	-0.3029994
226	0x3c44593e	0.011984168
227	0xbdd2944c	-0.10282192
228	0x3d9251e5	0.071445264
229	0x3cb71377	0.022348149
230	0x3e963874	0.29339945
231	0xbe3f6bf0	-0.18693519
232	0x3e14c8dd	0.14529748
233	0x3dfa5cc9	0.122247286
234	0x3dcdfb8c	0.100577444
235	0xbc4adeec	-0.01238225
236	0xbe04fd79	-0.12987317
237	0x3e15bbbc	0.14622396
238	0x3e2091c8	0.15680611
239	0xbe3f4d53	-0.1868184
240	0xbe1d1534	-0.1534012
241	0x3decd21b	0.11563512
242	0x3e9fea45	0.3123342
243	0x3d17f5a5	0.0370995
244	0x3e7ce7cd	0.246978
245	0xbc99320c	-0.018700622
246	0x3dd38fcf	0.10330164
247	0x3de468bb	0.11152788
248	0x3e33441e	0.17506453
249	0xbde98c80	-0.114037514
250	0x3dd6a66b	0.104809605
251	0x3d9c01ac	0.076175064
252	0x3e698818	0.22805822
253	0x3d8aac95	0.06771199
254	0x3e024c53	0.12724428
255	0x3d330255	0.043703396

bias f4 [64]
0	0x3d484b40	0.04889989
1	0x3d36307b	0.04447983
2	0xbda9d5cb	-0.08292731
3	0xbdce3677	-0.10068982
4	0xbe8ac250	-0.27101374
5	0xbe3edc6d	-0.18638773
6	0x3da971bb	0.082736455
7	0x3e8591d4	0.2608782
8	0xbe7dbf46	-0.24779996
9	0xbe5e2aff	-0.21696089
10	0x3e479269	0.19489445
11	0xbe1eaa83	-0.15494733
12	0x3df6b75e	0.12046693
13	0xbe97be47	-0.29637358
14	0xbca065cd	-0.019579792
15	0xbdb603eb	-0.08887466
16	0xbe9452b1	-0.2896934
17	0x3e5a7902	0.21335223
18	0x3e8202fc	0.25392902
19	0x3e77a388	0.24183476
20	0xbe0c717f	-0.1371517
21	0xbd4c4cc7	-0.049877908
22	0x3da5a3e7	0.080879025
23	0x3d84a591	0.06476892
24	0xbd129e45	-0.03579547
25	0xbdd352f9	-0.1031856
26	0xbd7607b7	-0.06006595
27	0xbe45f6b6	-0.19332394
28	0xbde49236	-0.111607
29	0xbe419b77	-0.18906961
30	0x3d3bc9f4	0.045846894
31	0x3e0fe34e	0.14051554
32	0xbe484f11	-0.19561411
33	0x3e41f75e	0.1894202
34	0xbe209a38	-0.1568383
35	0xbd92b214	-0.07162872
36	0x3ebf970b	0.37419924
37	0xbb9c87d5	-0.0047769346
38	0x3e611cfd	0.21983714
39	0xbd8acc23	-0.06777217
40	0x3d4cb290	0.049974978
41	0x3eb3f2bc	0.3514613
42	0xbeb69bd3	-0.3566576
43	0x3c94b82e	0.01815423
44	0x3c2c983b	0.010534341
45	0xbe9c0065	-0.3046905
46	0x3e5ed835	0.21762164
47	0x3e009ac2	0.12559035
48	0xbb50b6b3	-0.0031847178
49	0x3e1cc2d2	0.15308693
50	0x3de58dc5	0.11208681
51	0xbdeef530	-0.116678596
52	0x3e43656a	0.19081655
53	0x3a966f2a	0.0011477221
54	0xbbd1054e	-0.006378806
55	0x3e924673	0.28569373
56	0x3e2b15a5	0.16707475
57	0xbda0af54	-0.07845941
58	0x3ec50213	0.38478145
59	0x3e105fdf	0.14099072
60	0xbdc98355	-0.09839503
61	0xbe6c1b03	-0.23057179
62	0x3e6ef434	0.23335344
63	0xbe465bb3	-0.19370918

weight f4 [32, 64]
0	0xbd9e41d4	-0.077273995
1	0x3e078eb0	0.13238025
2	0x3baa08e2	0.005189047
3	0x3cdbdeea	0.026839692
4	0xbdd9c46d	-0.10633168
5	0x3d504059	0.050842617
6	0xbdd19a2b	-0.10234483
7	0xbe01154b	-0.12605779
8	0x3c9c4f8e	0.019080903
9	0x3e122dab	0.14275233
10	0x3abe628c	0.0014525219
11	0x3e04e22d	0.12976904
12	0x3d5db111	0.05412394
13	0x3e416b32	0.18888548
14	0xbd9506d8	-0.07276696
15	0x3e23c8a5	0.15994509
16	0x3d95a7c4	0.073073894
17	0xbd623e42	-0.055235155
18	0x3d190df2	0.037366815
19	0xbe4b2970	-0.19840026
20	0xbdb07b40	-0.08617258
21	0x3d8331c9	0.0640598
22	0x3d2499b3	0.04018564
23	0xbc8bb24d	-0.017052794
24	0x3da912cd	0.08255539
25	0xbc06c3f9	-0.008225434
26	0x3e238764	0.15969616
27	0x3d91f56e	0.0712689
28	0x3d823732	0.06358184
29	0x3d4479fa	0.04796789
30	0x3dbce4d7	0.09223335
31	0xbd3c4dab	-0.045972507
32	0x3e31a338	0.1734742
33	0x3dbeacb5	0.09310285
34	0xbd8d2133	-0.06891098
35	0x3d91c113	0.07116904
36	0xbcc97a70	-0.024594516
37	0x3d9acdaa	0.075587586
38	0xbdcf36a1	-0.101178415
39	0x3d918a4e	0.07106458
40	0xbdae7cbf	-0.08519887
41	0xbe207d09	-0.15672697
42	0x3df2af02	0.11849786
43	0xbcdf205e	-0.027237114
44	0x3de88413	0.11353316
45	0x3e029075	0.12750418
46	0x3e1094fb	0.14119332
47	0x3d59aa59	0.05314097
48	0x3d8df5a2	0.06931616
49	0x3db8d2f7	0.09024613
50	0xbdd3c7a1	-0.103408106
51	0x3d76fe4f	0.06030112
52	0x3cbe1ea1	0.023207964
53	0x3a8b4626	0.0010625764
54	0xbc80c183	-0.015717274
55	0xbc56a1ec	-0.013100129
56	0x3d6decd0	0.05808717
57	0x3d5f04af	0.054447826
58	0xbdf088c8	-0.11744839
59	0x3dea945a	0.11454077
60	0x3df853f9	0.121253915
61	0x3d2a772c	0.041617557
62	0x3da7bb43	0.08190014
63	0xbda33cc2	-0.07970573
64	0xbd791beb	-0.06081764
65	0xbdab516f	-0.083651416
66	0x3dd90469	0.10596544
67	0xbdc3515a	-0.09537001
68	0xbd150814	-0.036384657
69	0x3dc3499e	0.09535526
70	0xbe0635b0	-0.13106418
71	0x3df8cb57	0.12148159
72	0xbd69a2bd	-0.057039965
73	0x3c4f9421	0.012669594
74	0x3dc16424	0.094429284
75	0x3dc06064	0.09393385
76	0x3d2a94bf	0.04164576
77	0xbd474f77	-0.048659768
78	0xbd942a50	-0.07234633
79	0x3dffb8ea	0.124864414
80	0xbd1b1c7c	-0.03786896
81	0xbd011f70	-0.03152412
82	0xbdfd56f8	-0.123701036
83	0xbe048217	-0.1294025
84	0x3dd9893f	0.10621881
85	0xbd674e80	-0.056471348
86	0x3cd76f73	0.02629826
87	0x3d8652d0	0.06558764
88	0x3dd26e04	0.1027489
89	0xbb93a4ca	-0.0045057284
90	0xbd180ff4	-0.03712459
91	0x3dd06b3c	0.10176703
92	0x3e0810cf	0.13287662
93	0x3e1832f5	0.14863189
94	0xbd3f3665	-0.046682734
95	0xbcef31f4	-0.029198624
96	0xbd862eb0	-0.06551874
97	0xbdbaccb5	-0.09121076
98	0xbd3e75a9	-0.04649893
99	0x3d5dd655	0.05415948
100	0x3d9fd4c5	0.078042544
101	0x3ca11236	0.019662004
102	0x3e0e4886	0.13894853
103	0x3b1e0d95	0.0024116982
104	0xbd59de11	-0.053190295
105	0x3ab5c4ea	0.0013867889
106	0x3d5d2f18	0.05399999
107	0x3e15167a	0.14559355
108	0x3da49b13	0.080373906
109	0xbd9ce62c	-0.07661089
110	0xbdc6bb1b	-0.09703656
111	0xbcd2e20a	-0.02574255
112	0xbd9171b3	-0.071017645
113	0xbc251b51	-0.0100773135
114	0xbdd7e53c	-0.1054177
115	0x3c831a30	0.016003698
116	0xbcafed05	-0.021475324
117	0x3e221010	0.1582644
118	0x3d5ab7f4	0.053398088
119	0xbd9d233e	-0.076727375
120	0x3cec9e8b	0.028884193
121	0x3df74bee	0.12075029
122	0x3dfd4acf	0.12367784
123	0xbaa61742	-0.0012671726
124	0xbdc1e6bd	-0.09467838
125	0xbd2b5dd7	-0.04183754
126	0xbd798347	-0.06091621
127	0xbdc48d32	-0.09597243
128	0x3c6b1db9	0.014350348
129	0xbe15d2ee	-0.14631245
130	0xbc49c801	-0.012315751
131	0x3cf3507f	0.02970147
132	0xbd0a738e	-0.033801608
133	0x3dc64d94	0.096827656
134	0xbdb535cf	-0.08848154
135	0xbdb7bc31	-0.089714415
136	0xbc60e46e	-0.013726337
137	0xbb9bcb66	-0.0047544716
138	0xbd6e2f54	-0.058150604
139	0xbd6263cb	-0.05527095
140	0xbdc801aa	-0.097659424
141	0x3e2f2aa7	0.17106114
142	0xbd6d1f15	-0.05789097
143	0xbde494b9	-0.11161179
144	0xbdc64c97	-0.09682577
145	0xbc2719a5	-0.010198985
146	0x3dd01a22	0.101612344
147	0x3cdf4587	0.027254833
148	0xbc5e2833	-0.013559389
149	0x3e05f2b5	0.13080867
150	0x3df23bae	0.11827789
151	0x3d42759b	0.04747544
152	0xbcadcfb3	-0.021217203
153	0x3e25e375	0.16200049
154	0x3da845b4	0.0821642
155	0xbdda911e	-0.1067221
156	0xbdada18a	-0.08478077
157	0x3d48e66a	0.049047865
158	0xbc8c9774	-0.017162062
159	0xbd93a8b2	-0.072099105
160	0x3e3b5230	0.18293071
161	0xbd5fd271	-0.054644052
162	0xbd87565d	-0.06608269
163	0x3dc878d6	0.097886726
164	0xbe40589d	-0.18783803
165	0x3de89568	0.11356622
166	0xbe07b804	-0.1325379
167	0x3de99bf4	0.11406699
168	0x3dfa5317	0.122228794
169	0x3c17d2ef	0.009266599
170	0x3db38284	0.08765128
171	0xbd3f3f90	-0.046691477
172	0xbdfcc27b	-0.12341782
173	0x3dbb4895	0.09144703
174	0x3d8eb557	0.069681816
175	0x3cbd06c6	0.023074519
176	0xbb84832a	-0.0040439563
177	0x3d5cd79b	0.053916555
178	0x3d66147a	0.05617187
179	0x3e4656db	0.1936907
180	0xbdb58694	-0.08863559
181	0xbe204610	-0.15651727
182	0x3d1c640b	0.038181346
183	0xba32eac7	-0.00068251457
184	0xbdcfad8d	-0.10140524
185	0xbe49ff93	-0.197264
186	0xbde64143	-0.112429164
187	0x3e2b7601	0.16744234
188	0x3dc90944	0.098162204
189	0xbd21d441	-0.03950906
190	0x3da10cf8	0.07863802
191	0xbcac074a	-0.02099957
192	0x3c9bf179	0.019036042
193	0x3a9036b7	0.0011002634
194	0x3c67fc41	0.014159263
195	0xbdebaacc	-0.11507186
196	0xbc8675e6	-0.01641364
197	0x3c749d8e	0.014930142
198	0xba3ef0f8	-0.0007283832
199	0xbba5b542	-0.005057008
200	0xbdb0a1d9	-0.0862462
201	0x3d6da028	0.058014065
202	0xbce8c454	-0.028413929
203	0x3cecc3e2	0.028901998
204	0xbdc0d5c9	-0.09415776
205	0x3e1c5f01	0.15270616
206	0xbdcd5732	-0.10026397
207	0x3d060776	0.03272196
208	0xbce523b7	-0.027971132
209	0xbbe981f5	-0.007126088
210	0x3d0838b9	0.03325722
211	0xbd79d310	-0.0609923
212	0x3d47ddbe	0.048795454
213	0xbcbbed12	-0.022940192
214	0xbd83f44b	-0.064430796
215	0xbd8c4478	-0.06848997
216	0x3d27d6d8	0.040976375
217	0x3e0c669c	0.13711017
218	0x3da55f3a	0.08074804
219	0xbdd47e12	-0.103756085
220	0xbd495cab	-0.04916064
221	0xbdd87bdb	-0.105704986
222	0xbd267fe5	-0.040649313
223	0x3d6fec1a	0.058574773
224	0x3da5da01	0.080982216
225	0xbd3cd789	-0.046103988
226	0x3cccd14c	0.025002144
227	0xbd3822b1	-0.04495496
228	0xbe03d28a	-0.12873283
229	0xbc9f4da0	-0.019446194
230	0xbdeb7045	-0.11496023
231	0xbd9430c3	-0.07235863
232	0xbd0d65bc	-0.03452085
233	0xbcffcb58	-0.031224892
234	0xb9f78eab	-0.00047217807
235	0xbe013527	-0.12617932
236	0x3d35d4c4	0.044392362
237	0xbbdcc694	-0.0067375395
238	0x3d116782	0.035499103
239	0xbdab2813	-0.08357253
240	0xbdd27ff2	-0.1027831
241	0xbd9f15cd	-0.0776783
242	0x3d5fbab2	0.054621406
243	0x3e16dd06	0.14732751
244	0xbda7cab1	-0.08192957
245	0xbe0931da	-0.13397923
246	0xbe05c06d	-0.13061686
247	0x3cb8a910	0.022541553
248	0x3dfad0a9	0.1224683
249	0xbda77e32	-0.08178367
250	0xbd038365	-0.03210773
251	0x3cd7b569	0.02633162
252	0x3e043352	0.12910202
253	0xbdb9e731	-0.090772994
254	0x3d39374a	0.045218743
255	0x3e046267	0.12928163

bias f4 [32]
0	0xbdf378ef	-0.118883006
1	0xbd2089fa	-0.039194085
2	0x3de43146	0.11142211
3	0x3d0312bf	0.0320003
4	0x3c9e5eb0	0.01933226
5	0xbe74b44b	-0.23896901
6	0xbd1d524e	-0.03840857
7	0x3db6691e	0.08906768
8	0x3d5fdd34	0.054654315
9	0x3e120877	0.14261042
10	0x3d470050	0.048584282
11	0xbd7d90d5	-0.0619057
12	0x3e37fb95	0.17967065
13	0x3e1aa662	0.15102533
14	0x3e40ab90	0.18815446
15	0x3d4919dd	0.04909693
16	0xbe0ebc66	-0.13939056
17	0xbdcb72f4	-0.09934035
18	0xbdc0b5c2	-0.094096676
19	0xbd6ea5be	-0.058263533
20	0xbd07abe2	-0.033122905
21	0xbd844d5e	-0.06460069
22	0xbe0e268e	-0.13881895
23	0x3d9dbc50	0.077019334
24	0x3e7157c7	0.2356864
25	0x3bca3258	0.006170552
26	0xbcde8918	-0.02716498
27	0x3d6bc515	0.057561
28	0xbd9eff77	-0.0776357
29	0xbd91c294	-0.07117191
30	0x3d47c446	0.048771165
31	0x3daba5cb	0.08381232

weight f4 [16, 32]
0	0xbe7ecb14	-0.24882156
1	0x3e340220	0.17578936
2	0xbe940a1b	-0.2891396
3	0xba879058	-0.00103427
4	0xbe467b6e	-0.19383022
5	0xbe790296	-0.24317393
6	0x3de6b3e8	0.11264783
7	0xbe146537	-0.14491735
8	0xbe47e9fd	-0.19522853
9	0xbd668aeb	-0.056284826
10	0x3e32d93f	0.17465685
11	0x3e589813	0.21151762
12	0xbe875f21	-0.26439765
13	0xbe5b0c83	-0.21391492
14	0x3ed92c65	0.42416683
15	0x3e986341	0.29763225
16	0x3cc3cdea	0.023901898
17	0xbdf55f35	-0.1198105
18	0x3e97a20b	0.29615816
19	0xbdc49468	-0.09598619
20	0xbe23b66d	-0.15987559
21	0xbdc9b43b	-0.09848829
22	0xbd3aa81b	-0.045570474
23	0xbcbee349	-0.023301737
24	0x3ec560d1	0.38550428
25	0x3e9bb9f2	0.30415303
26	0xbd9780fe	-0.0739765
27	0x3cc3964e	0.023875382
28	0xbe85a58c	-0.26102865
29	0xbe162d1d	-0.14665647
30	0x3ecac37b	0.39602265
31	0x3e59e665	0.21279295
32	0x3df421c6	0.11920504
33	0xbe20ac6a	-0.15690771
34	0x3e5955be	0.21224114
35	0x3e5207b5	0.20510752
36	0xbdc7336b	-0.09726604
37	0x3e5e39f3	0.21701793
38	0x3d463424	0.04838957
39	0xbe3d4441	-0.18483068
40	0x3d94219f	0.07232975
41	0x3d8df284	0.06931022
42	0xbdff16c0	-0.12455511
43	0xbd8584a5	-0.065194406
44	0x3d366b6a	0.04453603
45	0x3e50528a	0.20343986
46	0xbd7be38a	-0.061496295
47	0xbd51752d	-0.05113714
48	0x3a552324	0.00081305415
49	0x3d9577bb	0.072982274
50	0x3d2c61ce	0.04208546
51	0x3db7fb44	0.08983472
52	0xbe08f035	-0.13372882
53	0x3c7700b9	0.015075856
54	0xbd4648df	-0.04840934
55	0x3e53e372	0.20692232
56	0xbdf4c874	-0.11952296
57	0xbd9ce63d	-0.07661102
58	0xbe01bb53	-0.12669115
59	0x3dc1c5c0	0.09461546
60	0x3d0306c1	0.031988863
61	0x3d86f994	0.06590572
62	0xbe8e8289	-0.27833965
63	0xbe0d6439	-0.13807763
64	0x3e4783d4	0.19483882
65	0x3d106ac8	0.035258085
66	0x3e4db293	0.20087652
67	0xbd681c7d	-0.056667794
68	0x3cc58a2b	0.024113735
69	0x3e84a7bf	0.2590923
70	0x3e2b9bd9	0.1675867
71	0x3e24b153	0.16083269
72	0xbd93c7be	-0.07215832
73	0xbc3aee23	-0.011409315
74	0xbd040e6c	-0.032240316
75	0xbe201988	-0.1563474
76	0x3dc014f9	0.09379
77	0xbc615e1e	-0.013755349
78	0xbd87c21c	-0.0662882
79	0xbda5079f	-0.08058094
80	0xbddd6af5	-0.10811416
81	0x3e28b4cb	0.16475217
82	0xbc7e5802	-0.015523912
83	0x3de7c424	0.11316708
84	0xbd967875	-0.07347194
85	0xbd03ed22	-0.03220857
86	0xbe43324c	-0.19062155
87	0x3e62bb3c	0.22141737
88	0xbe33ec46	-0.175706
89	0xbe8c6db3	-0.27427444
90	0x3d45a8de	0.048256747
91	0x3e17afef	0.14813207
92	0xbbc939f7	-0.006140943
93	0x3dd8a9f5	0.10579292
94	0xbdd08c59	-0.10183019
95	0x3dd9728e	0.10617553
96	0x3db86cd4	0.09005132
97	0x3e61298d	0.21988507
98	0xbe41ecba	-0.1893796
99	0xbe219343	-0.15778832
100	0x3c7f778c	0.015592467
101	0xbe1cf57f	-0.15328024
102	0x3bdb0dd4	0.006684998
103	0x3e389f40	0.18029499
104	0xbdd6af67	-0.10482674
105	0xbe456824	-0.19278008
106	0x3db9116c	0.09036526
107	0xbbfaa498	-0.0076490156
108	0xbe8a403b	-0.2700213
109	0x3d8ce250	0.06879103
110	0x3ecf4653	0.4048334
111	0x3e139aa7	0.14414464
112	0x3ce83185	0.028343925
113	0xbc0cbee8	-0.0085904375
114	0x3e4b1f43	0.19836144
115	0xbe6cd616	-0.23128542
116	0xbe2b45a7	-0.16725789
117	0xbe058399	-0.13038482
118	0x3c3b69c5	0.011438792
119	0xbe8af769	-0.27141884
120	0x3e5786db	0.21047537
121	0x3e9ce3c7	0.3064253
122	0xbc222072	-0.009895431
123	0x3d0303be	0.03198599
124	0xbe366af6	-0.1781424
125	0xbe0b2706	-0.13589105
126	0x3e1d28f0	0.15347648
127	0x3d30db41	0.043177847
128	0xbdb21b20	-0.0869658
129	0xbd78f3a1	-0.060779218
130	0xbd5a2e5c	-0.053266868
131	0x3dfa4f4a	0.122221544
132	0xbd8e13a4	-0.0693734
133	0xbd592f19	-0.05302343
134	0x3e371aa9	0.17881264
135	0xbdd2cc18	-0.10292834
136	0xbdae333d	-0.08505867
137	0xbd83b860	-0.06431651
138	0x3d45f9b2	0.04833383
139	0xbdc0baf7	-0.09410661
140	0x3e438e9e	0.19097373
141	0x3dbec4ac	0.09314856
142	0x3cd38111	0.02581838
143	0xbe3c74ba	-0.18403903
144	0xbd576e91	-0.05259568
145	0x3db3a322	0.087713495
146	0xbe199794	-0.14999229
147	0xbd688394	-0.056766108
148	0xbcc68285	-0.024232158
149	0xbc7c5bdb	-0.015402759
150	0xbe37a5f0	-0.17934394
151	0x3e6cbd85	0.23119171
152	0x3d315787	0.043296363
153	0xbda13195	-0.07870785
154	0x3d96d348	0.073645175
155	0x3de71393	0.1128303
156	0xbc6d329c	-0.014477398
157	0x3e65e771	0.22451569
158	0xbe58be87	-0.2116643
159	0x3d894e96	0.06704442
160	0x3e53dc75	0.20689566
161	0xbc8d60af	-0.017258016
162	0x3e5b30e9	0.21405376
163	0xbda4ee92	-0.08053316
164	0xbd2a59e1	-0.04158962
165	0x3e5f7420	0.21821642
166	0x3da33013	0.07968154
167	0x3d8a95e8	0.067668736
168	0x3dee9610	0.11649716
169	0xbdad716f	-0.08468901
170	0x3dddc612	0.108287945
171	0xbdae6a3a	-0.08516355
172	0x3e6cef74	0.23138219
173	0x3d9bf47e	0.076149926
174	0xbe8c4d8c	-0.27402914
175	0xbe9209d0	-0.2852311
176	0x3c3e8926	0.011629378
177	0x3bed20da	0.007236582
178	0xbe9bc7b3	-0.30425796
179	0x3de12660	0.109936476
180	0x3ca21b39	0.019788371
181	0x3de0e1db	0.109805785
182	0x3d052fab	0.032516163
183	0x3d413dba	0.047178008
184	0xbe8560d3	-0.26050434
185	0xbd5dec15	-0.054180223
186	0x3e6d7d8e	0.23192427
187	0x3e1745b5	0.14772685
188	0xbdf6e426	-0.120552346
189	0x3e5e3f83	0.21703915
190	0xbde818f7	-0.11332887
191	0xbdd1b6b8	-0.10239929
192	0xbd352e51	-0.044233624
193	0x3caf5c2a	0.021406252
194	0xbd068e25	-0.032850403
195	0x3e84e2cd	0.25954285
196	0x3d9a0152	0.07519783
197	0x3ebe8850	0.37213373
198	0xbd9f9776	-0.07792561
199	0xbb366715	-0.0027832438
200	0x3e3f12f8	0.1865958
201	0x3e59a340	0.21253681
202	0xbd862934	-0.065508276
203	0xbd827ea9	-0.06371815
204	0x3e24f04a	0.16107288
205	0x3d943e13	0.07238402
206	0xbeb0e478	-0.34549308
207	0xbe14b545	-0.14522274
208	0x3c1e73ad	0.009671134
209	0xbdbec735	-0.093153395
210	0xbe669358	-0.22517145
211	0x3d5d82a4	0.054079667
212	0xbd312775	-0.04325052
213	0x3e237cf3	0.15965633
214	0x3e10bd7c	0.14134783
215	0x3e69ba96	0.22825083
216	0xbe604c3e	-0.21904084
217	0xbe708811	-0.23489405
218	0x3d17189e	0.03688871
219	0x3c95d514	0.01829008
220	0xbd2c0d57	-0.04200491
221	0xbd841b69	-0.064505406
222	0xbe908f49	-0.28234318
223	0xbdb10a92	-0.08644594
224	0xbe388833	-0.18020706
225	0xbc0116a8	-0.007878937
226	0xbd3d4630	-0.046209514
227	0xbe1bc647	-0.15212356
228	0x3d204940	0.039132357
229	0xbd92c7d0	-0.071670175
230	0xbd816b1a	-0.06319256
231	0xbc4347f2	-0.011919009
232	0xbc73bcfd	-0.014876601
233	0x3d9cfb9f	0.076651804
234	0x3d01a424	0.031650677
235	0x3def0aad	0.11671958
236	0xbdd43ace	-0.103627786
237	0xbd86d34c	-0.065832704
238	0x3c9bf2cb	0.019036671
239	0xbdd7e57e	-0.10541819
240	0xbe16407d	-0.14673038
241	0xbdd9dd70	-0.10637939
242	0x3e21b6a8	0.15792334
243	0x3cdd4c0f	0.027013807
244	0x3d236f77	0.039901223
245	0xbe415856	-0.18881354
246	0xbd59cdc2	-0.05317474
247	0x3bc41185	0.005983534
248	0x3e4716eb	0.19442336
249	0x3e06b741	0.13155843
250	0xbd1a7260	-0.037706733
251	0xbdc13843	-0.09434559
252	0xbe26f0a7	-0.16302739
253	0x3de8df30	0.11370695
254	0xbdacf64d	-0.08445416
255	0x3d92ed0d	0.0717412

bias f4 [16]
0	0xbcbf3231	-0.023339363
1	0x3e175580	0.1477871
2	0xbe01c94b	-0.12674443
3	0x3dc1d581	0.09464551
4	0x3d68ae7a	0.05680702
5	0x3e3b94f3	0.18318538
6	0x3dccd974	0.100024134
7	0x3d3b3889	0.045708213
8	0x3daad05f	0.08340525
9	0xbda161d1	-0.07879985
10	0xbc7aa3a9	-0.015297809
11	0xbde9bbef	-0.114127986
12	0x3da255d6	0.07926528
13	0x3e1c1669	0.15242924
14	0x3d048d1f	0.032361146
15	0x3dff3fa5	0.12463311

weight f4 [1, 16]
0	0xbf90feba	-1.1327736
1	0x3effa97d	0.49933997
2	0x3efc7e22	0.49314982
3	0xbf5662d6	-0.8374456
4	0x3eb76bda	0.35824472
5	0x3f3967fb	0.72424287
6	0x3f488fc9	0.783444
7	0xbe54e3ad	-0.20789976
8	0xbf6daf82	-0.9284593
9	0x3f5f32ca	0.8718687
10	0x3dc8996e	0.097948894
11	0xbeabe6e4	-0.33574593
12	0xbe96783a	-0.293886
13	0x3f0060bd	0.5014761
14	0xbe3642fa	-0.17798987
15	0xbf821ab0	-1.0164394
